models/relnet100.pkl (torch, 916763 bytes, 39 tensors)

backbone.layer1.0.weight f4 [64, 3, 3, 3]
000000 57 c4 b0 be bc 90 f7 be 2a 8c cf bd 36 ec b2 3c
       -0.34524795 -0.4835261 -0.10134156 0.02184115
000010 71 18 e3 bb be 5d 6a bd 55 db 68 3e 15 81 d3 3e
       -0.006930404 -0.057218306 0.22739919 0.4130942
000020 1d a1 b2 3e 74 0b 51 be 44 58 ca be 4a 00 db bd
       0.34888545 -0.20414525 -0.39520466 -0.106934145
000030 f9 43 33 bb 65 4a 81 bd 3a ec 6e bd 43 1b a3 3e
       -0.0027353747 -0.06313018 -0.058330752 0.31856737
000040 70 76 fa 3e 1c 4c 76 3e c5 b0 8a be d6 93 bc be
       0.48918486 0.24052471 -0.2708799 -0.3683154
000050 d8 cf 87 be e8 df 34 bb 11 87 de bd cb be 86 be
       -0.2652576 -0.002759928 -0.108656056 -0.26317438
000060 18 76 99 3e 69 ac d8 3e 73 c9 9d 3e dd 48 73 be
       0.2997291 0.4231904 0.30817756 -0.23758264
000070 40 6d b2 bd 29 f6 b5 3e 12 f3 bc be da c1 ea bd
       -0.08712244 0.35539368 -0.36904198 -0.114627555
000080 b2 99 fc 3e 01 ea 01 be e5 be 0f be 61 c2 b4 3e
       0.4933601 -0.12686922 -0.14037664 0.3530455
000090 40 a8 2d be 23 50 eb bd d2 7e 9f 3e 5f 6d bf be
       -0.16958714 -0.11489894 0.31151444 -0.3738813
0000a0 ff 6d 6a be 81 d7 17 3f 6e b9 5e be e7 1b 46 be
       -0.22893523 0.5931321 -0.21750423 -0.19346581
0000b0 7b 43 ba 3e 2e 2b b1 bd 91 b8 9a bc bd 2f 80 3e
       0.3637961 -0.08650814 -0.018886836 0.2503642
0000c0 55 47 4c be bb 9a 8c be c7 e4 ce 3e c1 4f f9 bd
       -0.19949086 -0.274618 0.40408918 -0.12173415
0000d0 b2 b1 5f be a7 34 9f 3e 3b d5 92 bd d3 54 d3 3d
       -0.21845129 0.31094858 -0.07169577 0.10318913
0000e0 d2 35 b8 3e c6 17 07 be a2 3c 17 3d 5e df 37 3e
       0.35978562 -0.13192663 0.03692306 0.17956302
0000f0 55 95 04 3d 1f ec 14 bc 89 2d de bb 83 ba ed be
       0.032368977 -0.009089499 -0.0067803306 -0.4643136
000100 19 e0 1b be 98 cf 8a 3d 5e db 29 be e8 ee 0b be
       -0.15222205 0.067778766 -0.16587588 -0.13665354
000110 70 08 fb bd 0d 35 01 bd 11 bf 33 3d 02 1b 35 be
       -0.12257469 -0.031544734 0.043883387 -0.17686084
000120 a5 ca 1d bf 64 01 ce be e0 bc 66 3d 66 e1 3a be
       -0.61637336 -0.40235436 0.05633247 -0.18250045
000130 4b 8e 44 3d dc 28 93 3e bb 3e d2 3e c6 7d 07 3f
       0.047987264 0.2874211 0.41063485 0.5292629
000140 d9 3a ed 3e 80 99 fa 3d 34 2b 2b ba 27 40 1b 3c
       0.4633396 0.12236309 -0.000652957 0.009475744
000150 49 6a 7e 3d 29 02 32 3e 72 76 41 be 6d 18 f5 be
       0.06211308 0.17383637 -0.1889284 -0.47870198
000160 2b 2c f2 be 32 a8 10 bf 23 4d a4 3e 0b ac a1 3e
       -0.47299322 -0.56506646 0.320901 0.3157657
000170 03 e5 a7 3e 95 83 4b 3e 62 db ad 3e 30 45 0b 3e
       0.3279191 0.19874413 0.33956438 0.13600612
000180 0b 1f 80 be c8 8d 6a be 36 66 57 be 26 96 5f 3e
       -0.25023684 -0.22905648 -0.21035084 0.21834621
000190 0a 1d 3d 3e 04 5f b1 3e 48 42 6a 3e f1 8a 83 3e
       0.18468109 0.34642804 0.22876847 0.2569194
0001a0 66 60 0d 3e f7 97 4f be 24 e6 7c be 38 fc 90 be
       0.13806304 -0.20272814 -0.24697167 -0.28317428
0001b0 33 66 bc 3e 33 0f 96 bd 0f d1 31 be fa 66 2c 3f
       0.36796722 -0.07327118 -0.17364906 0.6734463
0001c0 9a 30 2a 3e 82 52 12 3c 28 bc 3d 3f b5 4a 6f 3e
       0.16620103 0.008930804 0.7411523 0.23368342
0001d0 0b 45 2e be 50 63 8a 3e e9 7d 27 bd 12 e9 28 be
       -0.17018525 0.27028894 -0.04089156 -0.1649516
0001e0 4b 6c ec 3e d2 6f 52 3e ac 78 84 bc bc 33 00 3f
       0.4617637 0.20550469 -0.016170822 0.5007894
0001f0 f3 27 37 3e 37 f4 7d bd 3a 60 1c be 4c 78 8a be
       0.17886333 -0.06200048 -0.15271083 -0.27044904
000200 05 11 81 be 3f 1f 33 bd be b4 6c be 42 58 08 be
       -0.25208297 -0.04373097 -0.23115823 -0.13314918
000210 d3 5d 3d 3d 38 c3 59 be 3f ad 9b be 6c 2f 1c be
       0.046232056 -0.21265876 -0.30405614 -0.15252465
000220 fe 2f 68 bc 65 9a 7e be 2c fc 3a 3e e6 54 08 3e
       -0.0141715985 -0.24863584 0.18260258 0.13313636
000230 0f 3f b0 3d fd ae 5c be a5 21 42 3e 4c bf 6b 3e
       0.086057775 -0.21551128 0.18958147 0.23022193
000240 f2 aa 06 bf 08 c7 19 be a5 d7 eb be 6c a5 50 be
       -0.5260459 -0.1501733 -0.4606296 -0.20375603
000250 38 7a a8 3e 32 e7 39 3e ce d0 ac be c8 79 dc 3e
       0.32905746 0.181546 -0.33753055 0.43061662
000260 5e 03 1b 3f 44 34 96 be 85 c5 cd 3d ab ad 2e bd
       0.6055201 -0.2933675 0.100474395 -0.04264609
000270 b0 3f 63 bd d5 7c cf 3e 77 2a 45 3e 54 b0 e7 be
       -0.05548066 0.40524927 0.1925448 -0.45251715
000280 76 fe 49 3e ec e0 34 3e e4 2b 9a bb 6d 09 75 3f
       0.19725975 0.17663926 -0.004704939 0.9571751
000290 f0 50 3d 3f 16 9d 57 be 37 dd 75 3f 47 ea 80 3f
       0.73951626 -0.21056017 0.9604067 1.0071496
0002a0 c5 f5 95 be 79 db 92 3e bb 9c 1d 3e b5 2e 23 bb
       -0.2928907 0.2868307 0.15391819 -0.0024899666
0002b0 bf 33 9e 3e 91 e5 50 3e e7 b6 75 be 86 b8 90 3e
       0.30898854 0.20400073 -0.23995553 0.2826578
0002c0 a4 48 a3 3e fb 2e 85 be bd 69 8f 3b 2e a1 94 be
       0.31891358 -0.26012406 0.0043766187 -0.2902922
0002d0 0f 89 48 3c 7a a1 9b 3c 24 90 dc bd b3 98 65 bc
       0.012239709 0.018997896 -0.1076968 -0.014013457
0002e0 ea da 76 3d 90 eb 6b 3c 1e 17 29 be a4 34 40 be
       0.060267366 0.014399424 -0.16512725 -0.18770081
0002f0 5d 13 9d be 43 d0 be 3d 31 f8 53 3e 28 50 f1 3e
       -0.30678836 0.093170665 0.20700146 0.47131467
000300 d7 3c 72 be 1a 09 c3 be 52 a8 1e 3e 6e 57 6f 3e
       -0.23656021 -0.3809288 0.15493897 0.23373196
000310 1d b6 21 be 83 98 eb be b8 97 88 bd e0 c9 00 3e
       -0.15792127 -0.46014795 -0.06669563 0.12577009
000320 f4 2c a0 3e 72 de c5 be ea 7e b2 be a6 f9 57 3e
       0.31284297 -0.38646275 -0.34862453 0.21091327
000330 fa ba 5e 3e e6 13 b2 be 91 b0 03 bf df 05 da bd
       0.21751013 -0.34780806 -0.51441294 -0.10645651
000340 d1 db 40 3e 7c c1 81 3e c3 4f 76 be f1 14 88 be
       0.18833853 0.2534293 -0.24053864 -0.26578477
000350 ee 51 48 3e 2a 5a 3b 3e 39 72 af bd 6e 65 48 be
       0.19562504 0.18296114 -0.08566708 -0.19569942
000360 21 23 35 be 83 6b 3b bd 1c aa 1d 3e 9a a9 9e 3c
       -0.17689182 -0.045756828 0.15396923 0.019367982
000370 64 83 c9 3e 47 9d fe 3e 56 7b ec be e0 9e c6 be
       0.39358056 0.49729368 -0.46187848 -0.38793087
000380 bd 57 e9 3d cb dd 56 bd fa 08 97 bd 63 67 59 3d
       0.11393688 -0.052457612 -0.07374759 0.053077113
000390 31 c1 83 3e e3 db a3 3e 19 69 a2 3e 49 eb b3 be
       0.2573333 0.32003698 0.31720808 -0.35140446
0003a0 de 59 fb be 08 b9 93 be ef 3d 00 3e 8e f1 e3 bd
       -0.49092 -0.28852105 0.12523626 -0.11130057
0003b0 25 16 5b be dd 5e e5 3e cd 4e c3 3e 69 46 fb 3d
       -0.21395166 0.44798937 0.38146058 0.12269289
0003c0 02 2e 17 bd 45 ad 71 be 56 b3 28 be 5c 80 1d 3c
       -0.03690911 -0.23601253 -0.16474661 0.009613123
0003d0 e0 a8 73 3e 26 42 97 3c ef c2 25 3c fd 71 2b 3e
       0.2379489 0.01846416 0.010117277 0.16742702
0003e0 b7 0c 41 3d 7a fa 31 be 23 ae cc 3b 1f 84 e4 3d
       0.047131266 -0.17380705 0.0062463447 0.111580126
0003f0 c9 d8 8a 3e 00 eb c5 3e 0e 44 99 3e 0b dc 0c be
       0.2711852 0.38655853 0.29934734 -0.13755815

backbone.layer1.0.bias f4 [64]
000000 cb db 48 c1 09 cc 48 c1 35 f9 42 c1 7e cd 32 c1
       -12.55366 -12.549813 -12.185842 -11.175169
000010 4c e6 2f c1 61 99 36 c1 fb 97 21 c1 b6 6d 3d c1
       -10.993725 -11.412446 -10.099605 -11.839285
000020 a5 5e 47 c1 ae 12 37 c1 ac 1e 44 c1 fb 23 45 c1
       -12.460607 -11.44206 -12.257488 -12.321284
000030 68 29 41 c1 22 05 48 c1 45 d8 50 c1 cc 01 0c c1
       -12.072609 -12.501253 -13.0528 -8.750439
000040 2f 6d 22 c1 a7 c3 14 c1 bf 32 19 c1 19 c7 40 c1
       -10.151656 -9.297767 -9.574889 -12.048608
000050 63 ed 4b c1 58 b7 49 c1 d6 57 49 c1 cb 8e 44 c1
       -12.745456 -12.607262 -12.583944 -12.284862
000060 8c a3 38 c1 8d 5f 15 c1 e1 e7 49 c1 05 7d 53 c1
       -11.539928 -9.335828 -12.619111 -13.218022
000070 fc e8 0d c1 68 6f 44 c1 68 53 4b c1 f5 51 47 c1
       -8.869381 -12.277199 -12.707863 -12.457509
000080 82 09 10 c1 1b b2 47 c1 99 93 05 c1 ef ab 4a c1
       -9.002321 -12.480983 -8.348535 -12.666976
000090 c9 dd 42 c1 ac ed 32 c1 2e 8a 4c c1 54 cf 44 c1
       -12.179147 -11.183025 -12.783735 -12.300617
0000a0 c5 e1 34 c1 f0 30 4b c1 21 ca 4d c1 58 b5 3f c1
       -11.3051195 -12.699448 -12.861848 -11.981773
0000b0 ba aa 31 c1 b5 c3 36 c1 e4 da 49 c1 97 30 42 c1
       -11.104181 -11.42278 -12.61594 -12.136863
0000c0 13 91 4b c1 4b db 49 c1 8c 47 44 c1 9f f9 33 c1
       -12.7229185 -12.616038 -12.2674675 -11.248443
0000d0 e9 d2 41 c1 5f a2 28 c1 66 4d 3a c1 9b ed 49 c1
       -12.113992 -10.539641 -11.643896 -12.620509
0000e0 07 f7 2c c1 aa ca 4b c1 87 8d 4a c1 92 b6 47 c1
       -10.810309 -12.736979 -12.659553 -12.482073
0000f0 a2 41 3a c1 24 80 37 c1 f4 16 2b c1 fb 65 3b c1
       -11.641024 -11.468784 -10.693104 -11.712398

backbone.layer1.1.weight f4 [64]
000000 fe e7 96 3f 3a f0 af 3f 76 b0 79 3f 73 bd d0 3e
       1.1789548 1.3745186 0.97534883 0.40769538
000010 3f 28 0a 3f a0 cb 02 3f 08 fc 31 3f d0 6d 53 3f
       0.5396766 0.5109196 0.69525194 0.82589436
000020 70 40 a3 3f 65 f9 06 3f 60 e8 83 3f 34 c6 37 3f
       1.275404 0.52724296 1.030529 0.7178681
000030 3a 8c 3d 3f 54 54 b9 3f e8 98 89 3f 1f 51 10 3f
       0.74042094 1.447886 1.0749788 0.5637378
000040 5c 47 21 3f 79 ad c1 3e 71 8e 1a 3f e9 1e 64 3f
       0.6299951 0.37827662 0.603736 0.89109665
000050 e9 18 b2 3f d3 2d 93 3f 95 76 5e 3f 4c 2d b0 3f
       1.3913852 1.149836 0.8689969 1.3763824
000060 6b 7f 52 3f 02 c5 f2 3e 52 7d 9c 3f a1 74 9a 3f
       0.82225674 0.4741593 1.2225745 1.2066842
000070 82 c1 14 3f 16 2f 0e 3f 83 76 8b 3f ed 1d 32 3f
       0.5810777 0.555406 1.0895542 0.69576913
000080 64 3f 21 3f 57 4c a0 3f 3e b6 52 3f 5a f7 36 3f
       0.6298735 1.2523297 0.8230933 0.7147118
000090 f0 67 82 3f 59 8f e0 3e 6c 8c 3c 3f 82 34 a2 3f
       1.0187969 0.43859366 0.73651767 1.2672274
0000a0 8d dd 34 3f c4 9f a5 3f 38 1a a4 3f 8c 7d 15 3f
       0.7065056 1.2939382 1.2820501 0.58394694
0000b0 46 05 68 3f f1 8b 28 3f 32 42 a7 3f 75 10 75 3f
       0.90633047 0.65838534 1.3067076 0.95728236
0000c0 c5 c3 a3 3f 9b 02 87 3f 84 f8 89 3f 1d 7e 09 3f
       1.2794119 1.054767 1.0778966 0.5370806
0000d0 d1 54 49 3f 0a 78 4c 3f dc b2 33 3f b8 f8 8e 3f
       0.78645045 0.79870665 0.7019479 1.1169653
0000e0 a6 9f 1f 3f f2 e4 68 3f f9 86 e3 3f 36 2b 94 3f
       0.6235298 0.9097434 1.7775565 1.1575687
0000f0 a9 74 47 3f 97 94 37 3f 7f 6e e0 3e 97 ba 3d 3f
       0.77912384 0.71711105 0.43834302 0.7411284

backbone.layer1.1.bias f4 [64]
000000 32 ac 41 3d fe 7f ca 3d fc 52 83 bf 7d bb 1e 3e
       0.04728336 0.09887694 -1.02597 0.15501209
000010 ab ea 3e be bd 99 1c be 5e de 51 bf ff 5c fd be
       -0.18644206 -0.15293022 -0.8197993 -0.49485013
000020 50 64 92 3f 3a e3 f2 be 03 75 32 bf 41 95 a4 be
       1.1436863 -0.47438985 -0.69709796 -0.32145122
000030 a5 5f d3 3e cb 97 98 3e 35 b6 46 3f 98 06 2e bf
       0.41283908 0.2980331 0.77621776 -0.6797881
000040 70 03 54 bf 67 82 60 be b4 bf 67 be b4 d4 fb bd
       -0.82817745 -0.21924745 -0.22631723 -0.12296429
000050 5b 4a f3 bc 94 b6 a9 3c a8 d7 cd 3e 0e d9 e5 3e
       -0.029698541 0.020716943 0.40203595 0.44892162
000060 ee df 77 bf 40 71 ba be 43 a3 d3 bd cc 51 f8 3e
       -0.96826065 -0.36414528 -0.10333874 0.48499906
000070 ca 9e 2e bf 4d 4d be be 5c 01 05 3f ac cf c1 3e
       -0.6821104 -0.3716835 0.519552 0.37853754
000080 1d 49 21 bf 38 2a 3a 3f d5 3f 97 be f8 4a 48 3e
       -0.63002187 0.7272067 -0.29540887 0.19559848
000090 d6 ad 0b 3f c6 9a f6 3d 58 32 13 3f f7 eb 8d 3e
       0.5456213 0.120412394 0.57498693 0.2771909
0000a0 f2 d5 8b be c4 3f 5f bd 93 43 a8 3d da f6 6c be
       -0.27311665 -0.05450417 0.08216014 -0.23141041
0000b0 88 29 26 bf a8 08 e6 be 22 25 fb 3e 22 4c 84 bf
       -0.6490712 -0.4492848 0.49051768 -1.0335734
0000c0 e1 48 77 3f 3e e4 b5 3e ea c8 5b bf 40 26 9c 3e
       0.9659558 0.35525697 -0.85853446 0.30497932
0000d0 56 aa 3c bf 95 4f 20 bf 74 8b 83 be a9 65 ef bd
       -0.7369741 -0.6262143 -0.25692332 -0.11689312
0000e0 48 72 3f bf 1e 88 37 bf 6b 51 10 3f 98 9e cb 3c
       -0.74783754 -0.71692073 0.56374234 0.024855897
0000f0 1f 85 02 bd 3b 54 1f bf c7 d4 41 be fb 99 b6 be
       -0.031865235 -0.622379 -0.18928824 -0.35664353

backbone.layer1.1.running_mean f4 [64]
000000 42 fd 48 c1 84 9b 47 c1 15 70 43 c1 56 aa 30 c1
       -12.5618305 -12.475468 -12.214864 -11.041586
000010 79 b6 22 c1 d6 2c 34 c1 2b fa 05 c1 25 71 45 c1
       -10.169549 -11.260946 -8.373576 -12.340123
000020 c3 71 46 c1 10 b4 40 c1 c8 a2 42 c1 3e a3 44 c1
       -12.402774 -12.043961 -12.1647415 -12.289854
000030 3f 19 3f c1 a4 84 49 c1 f0 ad 54 c1 fe 05 db c0
       -11.943664 -12.594883 -13.292465 -6.8444815
000040 6f 8d 40 c1 41 83 e8 c0 65 30 35 c1 2c 21 43 c1
       -12.03453 -7.266022 -11.324315 -12.195599
000050 08 67 4c c1 64 a4 4a c1 a3 7b 4b c1 8a 04 46 c1
       -12.775154 -12.665134 -12.717685 -12.376108
000060 6d ac 38 c1 00 99 32 c1 8f 39 4a c1 a1 bd 4f c1
       -11.542096 -11.1623535 -12.639052 -12.983796
000070 44 08 d0 c0 e8 8b 4c c1 b8 47 48 c1 f1 1f 46 c1
       -6.501009 -12.784157 -12.517509 -12.382798
000080 9f 16 36 c1 af b1 45 c1 16 e7 4d c1 81 d6 4b c1
       -11.380523 -12.35588 -12.868917 -12.739869
000090 a8 04 43 c1 a3 1a 3a c1 2a c5 49 c1 68 c3 45 c1
       -12.188637 -11.631503 -12.610636 -12.360207
0000a0 97 e7 41 c1 b3 8a 4c c1 b0 50 4e c1 ab 8e 3f c1
       -12.1190405 -12.783862 -12.894699 -11.972331
0000b0 f4 cc 3b c1 29 18 37 c1 17 8f 4a c1 80 0e 44 c1
       -11.737537 -11.443398 -12.659934 -12.25354
0000c0 41 b7 4d c1 4b 1a 47 c1 98 9e 43 c1 b0 5e 30 c1
       -12.85724 -12.443919 -12.226219 -11.023117
0000d0 6a 88 41 c1 ed 81 39 c1 5b 1b 39 c1 e2 d5 49 c1
       -12.095804 -11.59422 -11.569179 -12.6147175
0000e0 67 3e 3f c1 de 7e 4b c1 2f 85 4a c1 39 95 45 c1
       -11.952735 -12.718473 -12.657516 -12.348931
0000f0 1b a8 3f c1 9f 84 46 c1 fb 68 2e c1 2b 83 3a c1
       -11.978541 -12.407378 -10.90063 -11.657023

backbone.layer1.1.running_var f4 [64]
000000 27 3f 85 3d e1 49 62 3d 06 7c c2 3c 49 49 52 3d
       0.06506186 0.055246238 0.02374078 0.05133942
000010 44 48 29 3e bf 7f 1c 3d 85 23 1f 3f f2 23 97 3d
       0.16531473 0.038207766 0.62163574 0.07379903
000020 7a d2 85 3c f6 a4 de 3d fc 7e 02 3d 23 cc cc 3c
       0.016335715 0.108713076 0.031859383 0.024999684
000030 30 93 8e 3b 54 52 cd 3c e9 86 57 3c 1c 60 3d 3f
       0.004351042 0.025063671 0.013154724 0.73974776
000040 2f f6 3e 3f 8b 20 4f 3f 9e 03 1e 3f d1 09 3f 3c
       0.74594396 0.8090903 0.6172427 0.011660055
000050 8e c4 79 3c 12 ca 41 3d 0d 77 2c 3c d0 c4 70 3d
       0.015244616 0.04731185 0.010526431 0.058781445
000060 bc 8c fa 3c 99 3e 2a 3f 1e 43 38 3c 8a eb 3e 3c
       0.030584686 0.66501766 0.011246471 0.011652837
000070 17 c1 8d 3f 6b b2 79 3d 60 bb 64 3d 7f 3a 86 3b
       1.1074551 0.06096117 0.055842757 0.0040963287
000080 9d ea 92 3f 28 e9 93 3d 21 07 7e 40 bf 8e 1d 3c
       1.1477848 0.072222054 3.969185 0.009616553
000090 49 48 48 3d e3 e9 3e 3d a8 f5 5b 3c d4 0d 6d 3d
       0.04889706 0.04660977 0.013425268 0.057874516
0000a0 f5 f3 37 3e e5 9e 8e 3c b4 de 42 3d 8e f0 37 3c
       0.17964156 0.017409751 0.047575668 0.011226786
0000b0 2d 38 c1 3d da b5 07 3c 9e 5a 29 3c a7 30 41 3c
       0.09434543 0.008283103 0.010336546 0.011791385
0000c0 ac 22 54 3d 8c e5 eb 3b e4 34 17 3d bb cc d1 3c
       0.05179088 0.007198995 0.036915675 0.025610318
0000d0 89 0e 43 3b cf 73 86 3e 38 2a 5c 3d a2 30 0d 3c
       0.0029763302 0.2626023 0.0537512 0.008617552
0000e0 4d ff 85 3e 06 a7 19 3b d4 7f 81 3d 40 05 72 3c
       0.26171342 0.00234455 0.063232094 0.0147717595
0000f0 d8 d4 38 3d ec 73 46 3e c6 48 19 3c 54 02 e5 3c
       0.04512486 0.19380158 0.009355729 0.027955212

backbone.layer2.0.weight f4 [64, 64, 3, 3]
000000 d2 ca 39 bf 3b 82 4e bd 5f 25 23 bf 5a b9 33 3d
       -0.72575104 -0.050417166 -0.637289 0.043877937
000010 d3 dd a7 3e 4d bb 38 3e 0c 24 c4 bd 99 9c 88 bc
       0.32786426 0.180402 -0.09577188 -0.016676234
000020 e2 0b 01 be 56 f3 70 3e 5b 63 0f 3e d2 e9 2c bd
       -0.12602189 0.23530325 0.14002745 -0.042215176
000030 8a a2 d4 3d be 38 96 be 6e 3a 2f bd 1d c2 a5 3e
       0.10382564 -0.29340166 -0.042780332 0.3237466
000040 ed a1 5a bd 07 78 3d 3e 71 4c 38 bf b0 5a c4 be
       -0.05337708 0.18502818 -0.7199164 -0.3835044
000050 8d 4c 11 be 01 a7 97 be 4a 81 b8 3c 11 3d bd bc
       -0.14189358 -0.296196 0.022522587 -0.023100408
000060 74 a3 8b 3e 79 31 06 3e c3 f4 56 bd b3 24 03 be
       0.27273142 0.1310481 -0.052479517 -0.12806968
000070 48 f1 af 3d ec 83 7c 3e 03 01 d9 bd b9 fa ad 3d
       0.085909426 0.24659699 -0.10595896 0.08495087
000080 93 67 bb bc 78 c1 a8 be 26 1b f9 bd 60 4d a9 be
       -0.022876536 -0.32960105 -0.12163381 -0.33066845
000090 0c cc 5f 3e b0 39 e9 3e 9a b5 b3 3e e8 a4 aa 3e
       0.21855181 0.45551825 0.35099488 0.33328938
0000a0 33 20 0d 3f a3 59 c0 3e a6 44 4f be 71 c8 a5 3e
       0.5512726 0.37568387 -0.20241031 0.32379487
0000b0 ed 60 b1 3e c1 b2 e8 3e df ce 16 3f 05 2b 55 3e
       0.3464426 0.45448878 0.5890941 0.20817192
0000c0 60 9a 8d 3e 18 4b 2e 3e f0 78 25 3e 08 ea a1 3e
       0.2765684 0.17020833 0.16159415 0.31623864
0000d0 9d 95 e7 ba c9 db 9d bd 19 6f fa 3e 7b bd 05 3f
       -0.001766849 -0.07707936 0.48912886 0.5224225
0000e0 b3 e9 32 be 14 22 1e 3f 56 0a 36 3f d3 fc 81 3e
       -0.17471962 0.6177075 0.7110952 0.25388202
0000f0 70 41 71 3e 1a d2 1e 3e ef ac 2d 3e 2d 46 37 3c
       0.23560119 0.15509835 0.169605 0.011186165
000100 14 bc 1e bc b9 27 08 be 36 2e 47 3e 4b 89 0a be
       -0.009688396 -0.13296403 0.19451222 -0.13528936
000110 51 f1 dd be a7 96 2c 3e e7 50 b3 3d e3 48 93 3e
       -0.43348172 0.16854344 0.08755665 0.28766546
000120 73 a2 a0 3d fb 45 43 bd fe d8 46 be 94 97 a9 3e
       0.07843485 -0.04767416 -0.19418713 0.33123457
000130 a1 df 04 3e 6a c1 e6 bd ac ca 06 3f f6 5e a0 bd
       0.12975933 -0.112673596 0.52653 -0.07830612
000140 dc fa b2 bd 93 ad 71 3e 10 0a 00 3f a0 f6 bb 3d
       -0.08739254 0.2360137 0.50015354 0.09177899
000150 8b 4f fe 3e 19 f7 61 3f 39 d0 f4 3b f6 ff cf 3e
       0.4967006 0.88267666 0.007471111 0.4062497
000160 37 e0 b1 3e 76 69 9a be 39 68 07 3c 2a 0e 17 3f
       0.34741375 -0.30158585 0.008264595 0.5900599
000170 18 d3 ed 3e 09 4b ef bc 42 00 c3 3e c0 71 83 3e
       0.46450114 -0.029210584 0.38086134 0.25672722
000180 2c 4b 97 3d 40 3b 0a 3f c0 76 fe 3d 78 52 8a 3d
       0.07387385 0.5399666 0.124249935 0.06754011
000190 07 53 11 3e fe 67 f9 be 7a bb 29 3d 1f 13 0e 3f
       0.14191829 -0.48712152 0.041438557 0.55497926
0001a0 7e d3 a1 bd 4b 53 16 3d a0 8d 8a 3d dc 15 32 be
       -0.07901667 0.036700528 0.06765294 -0.17391151
0001b0 52 4a 86 be 3b ef b2 be 97 d3 ab be 68 19 38 be
       -0.26228577 -0.34948143 -0.33559868 -0.17978442
0001c0 69 b4 08 be 70 eb 33 bd d6 0f 27 be 2e 42 84 be
       -0.13350071 -0.043925703 -0.16314635 -0.2583174
0001d0 be 30 30 be ee 87 95 3e 85 38 9d 3e ce ef 80 3e
       -0.17206094 0.2920527 0.30707183 0.25182956
0001e0 fe 62 fd bd 39 75 a8 3b f6 58 1c 3c 6c e7 e7 bd
       -0.12372397 0.005140927 0.009542694 -0.11323437
0001f0 23 a2 ac 3d e7 0f f0 bc bc cc 68 be 86 87 ca bd
       0.084293626 -0.029304458 -0.2273435 -0.0988913
000200 5b db e0 3d 4d 05 e4 be 36 65 ea 3e 62 d4 3a 3f
       0.10979339 -0.44535294 0.45780343 0.7298032
000210 71 6c 6d 3c 21 6e 87 3e a1 bd c4 bc 8c 20 80 3e
       0.0144911865 0.2645121 -0.024016203 0.2502483
000220 4d 8e 80 3e 14 9c f7 3e ca d2 6e 3e 8f d4 90 bd
       0.25108567 0.48361266 0.23322597 -0.07071792
000230 05 0e 4d 3e 02 ab ec 3e b3 32 bd 3e 73 b1 bd 3d
       0.2002488 0.4622422 0.36952743 0.092623614
000240 f4 de 30 3e 35 de 18 3e 12 b8 03 be ba 36 10 3e
       0.1727255 0.14928515 -0.12863186 0.14083377
000250 11 09 45 3d f0 e5 fc 3d 57 aa 45 3e ea 6e df 3e
       0.04810435 0.123485446 0.1930326 0.43639308
000260 de 71 b8 3e 7f 0a 14 3f 72 d0 10 3f 8b 00 b5 3e
       0.36024374 0.57828516 0.5656806 0.35351977
000270 be 01 04 3f 72 30 05 3f 71 c4 fa 3e d9 15 b5 3e
       0.5156516 0.52027047 0.48977998 0.3536823
000280 33 ce 8c 3e 72 e2 f0 3e dd 1f 39 3e 64 04 1f 3e
       0.27501068 0.47047764 0.18078561 0.15529019
000290 47 d7 e8 bc 93 46 87 bc 4a 95 fd 3c 1c 9d 39 3e
       -0.028422965 -0.016513145 0.030954976 0.18126339
0002a0 64 43 64 3e 30 9a 95 3e 87 ab 75 3e 3d 97 00 3f
       0.22291332 0.29219198 0.23991214 0.5023077
0002b0 db 5e d6 3e d4 b3 a1 3e 07 c5 88 be 68 38 de b9
       0.41869244 0.3158251 -0.2671282 -0.00042385166
0002c0 52 95 6e 3e c5 ad b3 bc a6 67 01 3e ae b9 f1 3d
       0.23299149 -0.021933446 0.12637195 0.11802994
0002d0 46 aa 07 3e cb 58 b0 be 6b 9a ae bd bc 92 9b bd
       0.13248548 -0.34442744 -0.08525547 -0.07596347
0002e0 4b 78 b6 3d 1a 4b c6 3e a4 01 15 3e f7 33 cf 3e
       0.08909663 0.38729173 0.14551407 0.40469334
0002f0 41 e2 1a 3e fa 63 a2 be 60 d0 64 bc dd 4f 54 be
       0.15125372 -0.317169 -0.013965696 -0.2073359
000300 d9 51 54 3c 11 f4 11 3e 82 16 37 3c 7f 61 42 be
       0.012958967 0.1425326 0.0111748 -0.18982504
000310 5d 89 80 3d d0 e7 09 be f0 aa 59 3e d4 09 e0 bc
       0.062762 -0.13467336 0.21256614 -0.027348436
000320 f7 d0 87 3e 98 20 17 bf e2 2c 14 bf a5 2e cd bd
       0.26526615 -0.5903411 -0.57880986 -0.10018662
000330 86 c4 17 3e 8e c6 93 be cf 71 49 3e f6 24 b7 3e
       0.14821061 -0.28862423 0.19672321 0.35770386
000340 0b 60 69 3e 89 6d 85 bd e0 62 4e 3e 11 cc ac be
       0.22790544 -0.06515033 0.20154905 -0.3374944
000350 5d c0 af bc 84 aa dd 3d 6d 5e 2f be 4b e8 59 3d
       -0.02145403 0.10823539 -0.17125864 0.053200047
000360 6e 99 55 3e ea a0 1e 3f 75 e8 44 bd 16 d6 6b 3e
       0.2085931 0.61964285 -0.04807325 0.23030886
000370 22 cb 2d 3e 12 98 38 be b5 a0 f9 3d cd 55 50 bd
       0.1697202 -0.1802676 0.121888556 -0.050863076
000380 f2 68 1d bf 46 1b 89 3e b2 7d 47 3e de a2 fe bc
       -0.6148826 0.2677862 0.19481543 -0.03108352
000390 e6 1b f3 3d 8c 59 b7 3d 57 5f 54 3d e5 5d 04 3e
       0.118705556 0.089526266 0.051848736 0.12926443
0003a0 6c 39 d1 3e 10 32 e0 3e a3 d6 0b 3e af 3b 88 3e
       0.40864122 0.43788195 0.13656096 0.26608035
0003b0 34 06 95 3e bb 03 7d be 0a 59 93 3e 3b 87 b5 3e
       0.29106295 -0.24708454 0.2877887 0.35454735
0003c0 3b 9a 04 be f1 b3 a0 3d df eb 80 3e f1 7c d4 3e
       -0.12949459 0.07846821 0.25179955 0.41501573
0003d0 0c c4 c6 3e 72 c6 96 3e 87 b6 59 3f 0d 9b ec 3d
       0.38821447 0.29448277 0.8504414 0.11553011
0003e0 f9 f8 b1 be 7f ee 8c be e4 16 61 bf f7 0c 75 bd
       -0.34760264 -0.27525708 -0.87925553 -0.059826817
0003f0 6c 0a c2 3e a6 bb 0a 3f 3a df 82 3e cb d1 21 3f
       0.37898576 0.5419258 0.25560933 0.63210744

backbone.layer2.0.bias f4 [64]
000000 f5 8b 3b 42 3a d8 3a 42 c1 ac 38 42 b0 08 10 42
       46.886677 46.71116 46.168705 36.008484
000010 08 51 33 42 7f bc 15 42 5f d0 ee 41 1b 17 34 42
       44.829132 37.43408 29.851744 45.022564
000020 a2 79 5a 42 4e 2d 26 42 c2 3d 02 42 4d e1 36 42
       54.618782 41.544243 32.56031 45.72002
000030 cc 64 33 42 95 ab 2a 42 9a 82 2c 42 99 0a 55 42
       44.848434 42.66756 43.12754 53.26035
000040 d6 10 2e 42 3a b2 37 42 20 38 28 42 61 cf 49 42
       43.51644 45.92405 42.05481 50.45252
000050 ea 93 2d 42 81 4e 31 42 44 5f 39 42 b6 cc 27 42
       43.394447 44.326664 46.343033 41.949913
000060 4a e4 41 42 5f 2e 37 42 b6 52 33 42 aa e2 06 42
       48.47294 45.795284 44.830772 33.72135
000070 dc 6c 3a 42 00 fc 3a 42 67 43 2d 42 46 ea 13 42
       46.606308 46.746094 43.315823 36.978783
000080 a0 5c 04 42 0e 5c 2a 42 d5 b7 18 42 c8 1b 30 42
       33.090454 42.589897 38.179523 44.02713
000090 21 fc 3a 42 20 a1 1f 42 59 5f 2f 42 45 93 62 42
       46.74622 39.90735 43.843113 56.643818
0000a0 f7 bb 25 42 21 50 20 42 09 99 20 42 36 b7 2e 42
       41.43356 40.07825 40.14945 43.678917
0000b0 2c 30 4c 42 32 9b 32 42 42 69 2c 42 f3 55 29 42
       51.047043 44.651558 43.10279 42.333935
0000c0 cc 73 28 42 4b a8 15 42 7d 09 45 42 3f 19 27 42
       42.113083 37.41435 49.259266 41.774654
0000d0 c4 cb 12 42 20 c9 5e 42 3e d5 29 42 4c d2 2d 42
       36.69899 55.69641 42.458244 43.455368
0000e0 e2 2d 31 42 14 8b 3b 42 aa 4c 2e 42 11 94 22 42
       44.294807 46.88582 43.574867 40.644596
0000f0 b1 b3 4e 42 37 84 2e 42 fe 31 2d 42 23 0e 37 42
       51.67548 43.629116 43.29882 45.763805

backbone.layer2.1.weight f4 [64]
000000 73 5b 58 3f 0c fe a0 3f 71 53 98 3f 11 c5 64 3f
       0.8451454 1.2577529 1.1900464 0.893632
000010 a4 c5 2d 3f 5f a7 18 3f af a9 83 3f c2 66 90 3f
       0.678797 0.5963039 1.0286158 1.1281359
000020 1e 6e 91 3f 06 4c 7f 3f 13 e6 9c 3f 98 73 8d 3f
       1.136173 0.9972538 1.2257713 1.1050901
000030 da 55 8d 3f 83 01 73 3f e3 ae 24 3f 14 8e 69 3f
       1.1041825 0.9492418 0.64329356 0.9123242
000040 52 86 80 3f b3 19 ac 3f d2 9b 7a 3f 37 4e 9b 3f
       1.0040991 1.3445343 0.9789401 1.2133244
000050 33 42 3c 3f 8c f0 41 3f 03 00 a3 3f 85 72 0a 3f
       0.7353851 0.7575767 1.2734379 0.5408099
000060 e4 4c 7c 3f 2e 1d 79 3f 30 bf 89 3f cd 0e 69 3f
       0.98554826 0.9731015 1.0761471 0.9103821
000070 6b 24 8a 3f cc 1e 3a 3f 70 0d 78 3f 54 ed 8e 3f
       1.0792364 0.7270324 0.96895504 1.1166177
000080 d3 54 87 3f ee 6c 5c 3f b7 2a 3b 3f 9b e7 3b 3f
       1.0572761 0.86103714 0.7311205 0.73400277
000090 27 3f 8d 3f 4c 8c 17 3f 76 d4 4d 3f c8 02 73 3f
       1.1034898 0.5919845 0.80402315 0.9492612
0000a0 1f eb 47 3f d9 01 0e 3f 64 5e 48 3f e5 13 3d 3f
       0.7809314 0.5547157 0.7826903 0.7385848
0000b0 b5 9f 59 3f a4 7e 8c 3f 78 71 8f 3f 3c 8f 8b 3f
       0.8500932 1.0976148 1.1206503 1.0903087
0000c0 07 ef 95 3f ce 79 b8 3f 82 81 68 3f 2a a8 4c 3f
       1.171357 1.4412172 0.90822613 0.799441
0000d0 41 de ae 3f 97 c4 84 3f 99 25 32 3f 7b 9a ad 3f
       1.3661577 1.0372494 0.6958862 1.3562769
0000e0 de b8 7e 3f 14 2f 89 3f 46 d6 74 3f 45 32 2c 3f
       0.99500835 1.0717492 0.95639455 0.67264205
0000f0 25 6a 56 3f 52 b6 1a 3f 15 dc 97 3f 8f af 90 3f
       0.83755714 0.6043445 1.1864039 1.1303576

backbone.layer2.1.bias f4 [64]
000000 ac 18 0a bf bd 97 f3 be 71 36 01 bf 75 93 b2 be
       -0.53943896 -0.47576705 -0.50473696 -0.34878126
000010 44 5d b7 be e3 94 08 bf f0 25 aa be ce 28 02 bf
       -0.35813344 -0.53352183 -0.3323207 -0.50843513
000020 fd a3 77 bf e5 79 20 bf 74 f4 6d be 04 3e 13 bf
       -0.967346 -0.62685996 -0.23237783 -0.57516503
000030 2e 84 0d bf 2a 2b f9 be f2 48 0b bf 75 53 f0 be
       -0.55279815 -0.48665744 -0.5440818 -0.46938673
000040 d9 48 09 bf 6a 5e b0 3d 0a 2e 1a bf 08 ef 58 bf
       -0.5362678 0.08611758 -0.602265 -0.8473973
000050 a9 b9 f1 be 4b 63 0f bf 10 f6 f5 be 44 8c d7 be
       -0.4721196 -0.56010884 -0.48039293 -0.42099202
000060 06 c7 03 bf 32 8f 17 bf d5 ab 03 bf 3a f9 1c bf
       -0.5147556 -0.59202874 -0.5143407 -0.6131779
000070 fd 07 d2 be 8b 1d de be fc 66 23 bf 84 1d 25 3d
       -0.4102172 -0.43381914 -0.63829017 0.04031135
000080 5f 9d b8 bd b0 4b 49 bd 4a 64 06 bf 89 3d e7 be
       -0.09014391 -0.049144447 -0.5249678 -0.45164135
000090 bf 03 f3 be 39 14 fd be 44 63 b9 be 40 5d d9 be
       -0.47463796 -0.4942949 -0.36208546 -0.42453957
0000a0 2d 92 21 bf 8a 00 ae be 90 0c a5 be 46 6a 9d be
       -0.6311367 -0.33984786 -0.32236147 -0.30745143
0000b0 f1 65 24 bf 7f 23 24 bf 90 2a c5 be cc f6 f8 be
       -0.6421805 -0.6411666 -0.38509035 -0.4862579
0000c0 98 68 a3 be dc 88 65 be ed 6f 03 bf 47 00 23 be
       -0.31915736 -0.22415489 -0.5134266 -0.15918075
0000d0 e0 92 42 be be a7 2a bf 37 10 18 bf d8 3e b1 be
       -0.19001341 -0.66662204 -0.5939974 -0.34618258
0000e0 94 a9 fa be 82 6d aa be a4 1b 15 be 95 2e 63 3e
       -0.48957503 -0.33286673 -0.14561325 0.22185738
0000f0 10 bc d7 be d8 80 d5 3d a4 d7 27 bf e3 4a 00 bf
       -0.42135668 0.104249656 -0.65563416 -0.5011427

backbone.layer2.1.running_mean f4 [64]
000000 ea f2 5b 42 07 be 1d 42 94 c0 09 42 93 a8 b1 41
       54.98722 39.435574 34.438065 22.207312
000010 69 9e 14 42 cd 9b b5 41 6f f0 01 3f da c2 08 42
       37.154697 22.701075 0.507575 34.190285
000020 76 00 3c 42 1b c2 e2 41 59 9a 65 40 e1 ca 1c 42
       47.00045 28.344778 3.5875456 39.198124
000030 47 46 10 42 f5 1f 13 42 4e cf 09 42 5f 0b 3f 42
       36.06863 36.781208 34.452446 47.761105
000040 db 2f fd 41 f0 f9 15 42 b6 6b db 41 0b 2e 34 42
       31.648367 37.49408 27.427593 45.044964
000050 41 07 31 42 57 cf 27 42 88 6a 12 42 1e d2 06 42
       44.257084 41.95248 36.604034 33.705193
000060 b6 40 32 42 a8 c5 20 42 e5 22 1d 42 d2 34 34 41
       44.563194 40.193024 39.284077 11.262896
000070 b9 f1 15 42 d6 ce 22 42 b4 78 20 42 76 6f 5d 41
       37.486057 40.70199 40.117874 13.839712
000080 02 69 12 41 9b 08 1b 42 cb b1 09 42 0d b2 13 42
       9.150637 38.758404 34.423626 36.923878
000090 30 02 20 42 60 0b 2a 42 b9 84 0f 42 9d e4 64 42
       40.002136 42.51111 35.879612 57.223255
0000a0 4e 64 17 42 f3 5d 4e 42 9a 05 fa 41 6c 83 00 42
       37.847954 51.591747 31.252735 32.12834
0000b0 fc 9c 42 42 0f a8 1b 42 e8 da 0b 42 62 67 02 42
       48.653305 38.91412 34.963776 32.60096
0000c0 f4 70 d1 41 4c f8 59 41 fb 77 29 42 89 16 1d 42
       26.180153 13.623119 42.36717 39.272007
0000d0 53 42 77 41 f5 e3 57 42 56 b7 22 42 5a 35 0a 42
       15.453692 53.972614 40.67904 34.5521
0000e0 67 0f 1d 42 6d 74 2b 42 48 51 14 42 d8 01 31 42
       39.26504 42.863697 37.079376 44.2518
0000f0 06 ed 3a 42 45 a4 2e 42 a1 0e 0c 42 c2 43 08 42
       46.73147 43.66042 35.014286 34.06617

backbone.layer2.1.running_var f4 [64]
000000 dc 53 9d 42 d8 bd 68 43 59 9d 4a 43 db e6 6d 43
       78.66379 232.74158 202.61464 237.90178
000010 a7 d4 1b 43 b3 84 f8 42 4e 34 2e 44 26 54 74 43
       155.83067 124.25918 696.81726 244.3287
000020 11 a8 8f 42 a6 b4 a6 43 39 de 0a 44 a4 50 39 43
       71.828255 333.41132 555.4722 185.315
000030 6b 29 38 43 37 a9 f0 42 db 4a cf 42 ec 9a 32 42
       184.16179 120.3305 103.6462 44.65129
000040 59 62 37 43 f3 c9 00 43 64 53 2f 43 14 02 a6 42
       183.38417 128.78886 175.32574 83.00406
000050 10 c2 45 42 3f 38 85 42 2a 18 76 43 15 af a1 42
       49.439514 66.609856 246.09439 80.84196
000060 04 5a 6d 42 0b ce e7 42 9c 9d 05 43 14 f3 9b 43
       59.337906 115.90243 133.61566 311.89905
000070 44 df 19 43 e3 08 79 42 c7 ea 1e 43 6c 7e b6 43
       153.87213 62.25868 158.9171 364.98767
000080 59 75 ef 43 78 bd 88 42 2d ab 8a 42 4c 03 14 42
       478.91678 68.370056 69.33433 37.00322
000090 96 ad 33 43 d3 1b 15 43 79 b6 81 42 7d d5 93 41
       179.67807 149.10869 64.85639 18.479242
0000a0 0b 18 ca 42 c7 eb 8a 42 82 6c a8 42 23 1d d8 42
       101.04696 69.4605 84.21193 108.05691
0000b0 1b 31 f0 41 fd f1 d8 42 26 ae 89 43 a9 61 46 43
       30.023977 108.47263 275.36053 198.38148
0000c0 b6 ab 8c 43 8a cb db 43 f4 f2 a9 42 29 23 05 43
       281.3415 439.59015 84.97452 133.13734
0000d0 97 75 ed 43 0a 34 84 41 4a 10 c7 42 1b f2 43 43
       474.91867 16.52541 99.531815 195.94572
0000e0 9b 34 ec 42 5b cb a7 42 33 79 1a 43 dc b9 74 42
       118.102745 83.89718 154.47343 61.181503
0000f0 c7 96 46 42 40 64 80 42 d1 00 29 43 96 be 3a 43
       49.647243 64.1958 169.00319 186.74448

backbone.layer3.0.weight f4 [64, 64, 3, 3]
000000 75 ba a1 bd 05 dd 19 bd c2 5a 3d be 34 fe 39 3e
       -0.07896892 -0.037564296 -0.18491653 0.18163377
000010 3e df 4d 3e 5b d5 f0 bd fd 79 ff be 68 bc eb be
       0.20104691 -0.11759444 -0.49897757 -0.4604218
000020 52 39 18 bf 0a c8 f4 bd 50 4e 29 3c 44 6f a8 3e
       -0.59462464 -0.11952217 0.010333613 0.3289739
000030 6f a7 a3 bd 9f ad e5 3d a6 24 fc 3e 55 66 ae bd
       -0.0799092 0.11214756 0.4924671 -0.08515612
000040 68 bb 72 bd ed e5 84 3e 88 b6 93 3e 70 ac 54 3e
       -0.059260756 0.2595667 0.28850198 0.20768905
000050 a9 92 9a bd 0b 5c c0 3e 97 a1 32 3e 3e f3 b0 3e
       -0.075475045 0.37570223 0.17444454 0.3456058
000060 2a a7 cf 3e 57 7a 1b bd f1 c5 bf 3b ae 51 be be
       0.40557224 -0.03795847 0.005852454 -0.37171692
000070 28 c0 07 be 8f 9c d9 bc 36 ea 90 bd 66 32 61 be
       -0.13256896 -0.02656391 -0.07075922 -0.21991882
000080 99 88 cd bc f4 77 f5 3d 2e 85 d6 be 0e 16 0a bf
       -0.025089549 0.1198577 -0.41898483 -0.539399
000090 ad f4 ca 3e 74 f6 83 3e f8 ce a5 3d d7 9f 11 3d
       0.39639798 0.25773966 0.08096117 0.035552826
0000a0 e7 9d 4b be 35 f9 f5 bd d1 bf dd 3d 2f a4 b5 bd
       -0.19884454 -0.12010423 0.10827602 -0.08869206
0000b0 50 97 13 bf a8 9c 01 bf c7 a8 a8 be 4a c6 7d 3d
       -0.5765276 -0.50629663 -0.32941267 0.06195668
0000c0 3c 08 8a be 53 b2 a5 bd 8f d0 ca 3c d0 44 60 be
       -0.26959407 -0.08090653 0.024757652 -0.2190125
0000d0 ea e6 c9 3d 3e e5 06 be 3e df 01 bf c0 b3 89 be
       0.098584965 -0.13173386 -0.50731266 -0.2689495
0000e0 1c f3 a0 be 13 2c 0c bf 7a 82 d8 be 3e b4 c7 be
       -0.31435478 -0.5475475 -0.42287046 -0.390047
0000f0 de 14 11 bf c2 18 5b bf 8a e6 60 bf 40 06 aa 3d
       -0.56672466 -0.8558465 -0.87851775 0.08301973
000100 1e 50 ac 3e 1e f4 b6 3d f8 6d 6b 3e 00 0a e4 3e
       0.33654875 0.089332804 0.22991168 0.4453888
000110 6e 00 a3 3e f8 75 19 3e f4 0c 10 3e 22 f9 d6 3e
       0.31836265 0.14986408 0.14067441 0.41986948
000120 23 dd 05 3f 03 8e 4b 3d 9a e9 5f be d4 06 06 3f
       0.5229055 0.04969598 -0.21866456 0.5235417
000130 fb db de 3e b5 65 10 be 73 f6 aa bb 5b a6 58 3e
       0.43527207 -0.14101298 -0.0052173673 0.2115721
000140 e9 87 e1 bc 13 38 7f 3e 3c a5 b4 3e 76 b5 88 be
       -0.027530627 0.24923734 0.35282314 -0.26700944
000150 ac 61 07 3f ef 95 ba 3e 67 35 2d be e7 cc a3 3e
       0.5288341 0.36442515 -0.16914903 0.31992266
000160 85 3b fc 3d 19 b4 35 be 9a 94 f6 be 7d b0 d3 be
       0.1231604 -0.17744483 -0.4816025 -0.41345587
000170 6d 8b 22 bd 2a b8 bd be c6 83 b9 be 7b 73 f5 3c
       -0.039683748 -0.3705457 -0.36233348 0.029962292
000180 15 86 8a be 6b b4 68 be 9d b8 e6 bd d1 3e e9 3e
       -0.2705542 -0.22725074 -0.11265681 0.45555738
000190 2c 1c 1f 3d 7f c1 a4 bd 8b be 46 be d0 92 80 be
       0.038845226 -0.08044719 -0.19408624 -0.2511201
0001a0 0c bf 18 be 00 5d 5b 3e 5d c1 91 be 71 95 ae be
       -0.14916629 0.21422195 -0.28467837 -0.3409839
0001b0 c5 ec 36 bf 72 23 b4 be 61 6f 64 be 08 24 de be
       -0.7145503 -0.35183293 -0.22308113 -0.43386865
0001c0 e3 a4 68 bd 2e d7 65 3e d0 f3 ff be b1 bf 1d 3d
       -0.056797873 0.22445366 -0.49990702 0.03851289
0001d0 ad 55 c3 3e de ad f0 3e b4 74 83 bd 0f 37 de be
       0.38151303 0.4700765 -0.06418744 -0.4340138
0001e0 39 9f 03 3f c3 d8 21 3e ba 8e 4e be 74 fb 18 3e
       0.5141483 0.15805344 -0.20171633 0.14939672
0001f0 c3 a9 08 3e f3 9d ca bc 72 d3 b1 be c6 58 f4 3d
       0.13346009 -0.02473352 -0.34731632 0.11930995
000200 05 66 5c 3e c5 91 96 be 15 02 a4 bd b7 22 92 3e
       0.21523292 -0.29408088 -0.080082096 0.2854211
000210 61 4d bc be ec aa 3d 3d 02 8d b1 3e e5 1a d7 3e
       -0.36777785 0.046305582 0.34677893 0.42012706
000220 55 56 b4 be 18 7a 6d be ec 9d ac bc 82 55 6d 3d
       -0.35222116 -0.23191106 -0.021071397 0.057942875
000230 bf 55 c2 3d 92 17 2d 3e 24 f4 64 3e 70 a6 7f be
       0.09489011 0.16903523 0.22358757 -0.24965835
000240 05 1b 70 3e 6c 68 90 3e cf 2e 06 3e 39 47 e7 3e
       0.23447807 0.28204668 0.13103794 0.45171526
000250 d4 de 00 be 8e 85 e6 3d af 85 8b bd 73 96 d2 be
       -0.12585002 0.11255942 -0.068126075 -0.4113041
000260 bf 52 39 be 98 a8 a9 3d 36 14 97 be 7d 42 9f 3e
       -0.18097971 0.0828411 -0.29507607 0.31105414
000270 e9 ec d9 bd dd 54 1b bf c3 54 66 bd d4 be 0b 3d
       -0.1064089 -0.60676366 -0.05623318 0.034117535
000280 98 d8 8f be c9 30 61 be 99 bb a0 3e 3b 14 25 3e
       -0.28094935 -0.21991266 0.31393126 0.16120999
000290 53 11 65 be a9 85 b5 3e 80 ca 1f be 4a ae c1 be
       -0.2236989 0.35453537 -0.15604591 -0.37828285
0002a0 f3 a6 a3 3e be e7 61 be 96 cf 7b bd 36 01 15 bf
       0.3196331 -0.22061059 -0.061477266 -0.5820497
0002b0 38 35 df be bb 86 46 be f4 61 32 be a8 7a 49 be
       -0.4359529 -0.19387333 -0.17420179 -0.19675696
0002c0 0c b4 c0 bd 40 75 d9 bd 8b 0a 66 be c8 45 2c be
       -0.09409341 -0.10618067 -0.2246496 -0.16823494
0002d0 28 59 f5 3e af 85 cb 3e 8a 7d f5 3e 41 14 61 3e
       0.47919583 0.3975043 0.4794734 0.21980383
0002e0 24 d2 ae 3d f8 28 7d 3e 45 b2 80 bd f5 86 37 3e
       0.08536175 0.2472266 -0.06284002 0.17922576
0002f0 7f 30 53 3e 50 12 8d bd 00 04 68 bd 6c 85 86 be
       0.20623969 -0.068882585 -0.05664444 -0.26273668
000300 39 8d a2 bd 21 5f 40 be 15 b1 04 bf 50 62 0a 3e
       -0.07937092 -0.18786289 -0.51832706 0.13514066
000310 6a 71 8d 3a 6e 31 e2 bd c7 04 2c 3e ec 23 f6 3e
       0.0010791246 -0.11044584 0.16798697 0.4807428
000320 83 38 ef 3e 4e 4a 5e 3e 92 b6 3d 3e c4 80 82 3e
       0.46722803 0.21708032 0.18526676 0.25488865
000330 29 f4 e4 3e ec 82 dd 3e 80 39 64 3d 45 eb 34 3d
       0.4471753 0.43263948 0.0557189 0.044169683
000340 15 79 4b 3d d7 4e 85 bc 19 1d 20 3e 44 48 06 bd
       0.04967602 -0.016272945 0.156361 -0.03278376
000350 48 49 ad bd 6c 86 09 bd f6 c0 50 be d9 e2 97 be
       -0.08461243 -0.03357546 -0.20386109 -0.2966526
000360 f8 6b 5c 3e ea 15 c4 be c0 4b 3a bf a6 9c 3a be
       0.21525562 -0.3829797 -0.72771835 -0.18223819
000370 1e 97 0e be 71 02 9f be 77 ab 3d be b2 0b 81 3d
       -0.13924834 -0.3105655 -0.1852244 0.06301059
000380 26 f2 bf 3d 08 a2 38 be 65 3c ba 3e 1a 22 81 bd
       0.09372358 -0.1803056 0.36374202 -0.063053325
000390 6f 78 b0 3e 17 e0 ed 3d 50 3d d0 be c9 e1 4a 3d
       0.34466884 0.11615007 -0.40671778 0.04953173
0003a0 7e 9c e5 be f0 1f 24 bf a6 24 f5 bd 3e 0f 33 3d
       -0.44845957 -0.6411123 -0.11969881 0.043715708
0003b0 79 c0 af 3e b7 5f f7 3b 5a a0 99 3e fa f4 ef 3e
       0.34326532 0.007549252 0.3000515 0.4686659
0003c0 dd a5 a8 bd b0 36 60 3e ee 24 00 3f 24 41 8e 3d
       -0.08234761 0.21895862 0.5005635 0.06946018
0003d0 18 a8 87 3d cd 14 25 3e 89 b3 91 bd 35 11 be be
       0.06623858 0.16121216 -0.07114322 -0.37122503
0003e0 bd 89 5c be 4c 1b 7c be 73 27 9c be 5e eb a4 be
       -0.21536918 -0.24619788 -0.30498847 -0.3221082
0003f0 8e 32 34 bf c9 eb d0 be 07 b8 f8 be 76 30 16 3e
       -0.7038964 -0.4080489 -0.48577902 0.14666924

backbone.layer3.0.bias f4 [64]
000000 ed a3 29 3c 3c bf 60 be aa 82 05 3e d7 d3 a3 3c
       0.010354024 -0.2194795 0.13038126 0.019998474
000010 a3 5a 2b 3d 26 de 0f 3c c2 b4 9f bd 2f 75 74 bb
       0.041834485 0.008780992 -0.07798149 -0.0037301292
000020 41 15 88 bd ab d4 a9 3d c3 44 5a 3d e2 32 b8 bd
       -0.06644679 0.08292516 0.053288233 -0.0899408
000030 0f 5b 44 be a1 60 50 bc 43 2d 0d 3e fb c9 e0 bd
       -0.19175361 -0.012718351 0.13786797 -0.10976025
000040 e1 2f 4f bd 97 f1 aa 3d 53 ec 9d 3c 6b 23 9b bc
       -0.05058277 0.08346861 0.019277727 -0.018937787
000050 3a ea 80 be 17 21 94 bd 28 4f 57 3c 32 1b 16 be
       -0.251787 -0.07232874 0.013141431 -0.14658812
000060 58 9e 94 be cb 48 ea 3d 04 1e 2c 3e 82 d3 e7 bc
       -0.29027057 0.114396654 0.16808325 -0.028299097
000070 91 2e 64 3d b9 54 20 be d7 39 c4 3d 74 ea f0 bb
       0.05570847 -0.15657319 0.095813446 -0.0073521677
000080 df 09 8e bc e7 33 11 3d d7 76 35 3b ae d1 93 3d
       -0.017338691 0.03544989 0.0027689242 0.072177276
000090 61 b2 d5 bd 2f e3 4f 3d 95 2b ed bd b8 2d a2 3d
       -0.10434414 0.05075377 -0.11580578 0.079188764
0000a0 e7 fd 23 be e5 71 fa bc 98 36 43 3e 12 4b 3f bd
       -0.16014825 -0.030571887 0.19063795 -0.046702452
0000b0 fb c4 1e 3d 50 d3 fa 3b bb ac e8 bd f4 23 be bc
       0.038762074 0.007654585 -0.11361071 -0.023210503
0000c0 04 a1 f7 3c 86 68 9f 3d 8b 55 09 bd 46 b3 48 be
       0.030228145 0.07783608 -0.033528846 -0.19599637
0000d0 72 12 9e be 70 1e dd 3c 04 c6 ae bc eb ea f0 3d
       -0.30873448 0.026992053 -0.021334656 0.11763557
0000e0 09 cc 21 be 9c bc 89 bd 98 66 c4 bd 66 61 3b bd
       -0.1580049 -0.067254275 -0.09589881 -0.045747183
0000f0 2f 6a ea 3c 6b 11 ba bb 72 9f 01 bd 78 4a 25 be
       0.028615085 -0.005678346 -0.0316462 -0.16141689

backbone.layer3.1.weight f4 [64]
000000 83 ef 54 3f 7a b8 60 3f a4 ec 78 3f f2 57 aa 3f
       0.83177966 0.8778149 0.97236085 1.3308089
000010 38 6f 80 3f 0d a5 5b 3f cc f6 85 3f 47 f2 6a 3f
       1.0033941 0.8579872 1.0465941 0.91775936
000020 e8 86 a9 3f 3f 5d 5a 3f 85 b4 5c 3f 44 f0 8a 3f
       1.3244295 0.8529853 0.8621295 1.0854573
000030 54 9f 7b 3f 2b ef 67 3f 83 2b 87 3f 0f b5 32 3f
       0.9828999 0.90599316 1.0560154 0.69807523
000040 f8 29 46 3f 81 9a 87 3f 49 05 49 3f 3d 1d 49 3f
       0.7740779 1.0594026 0.7852369 0.7856024
000050 f7 ab 7a 3f 8b e8 90 3f 9e ee 60 3f 51 83 75 3f
       0.9791865 1.1320966 0.878641 0.959035
000060 52 ce 4d 3f 17 50 56 3f 6b 2f 1f 3f 26 f3 54 3f
       0.80392945 0.8371596 0.6218173 0.83183515
000070 03 1c 6b 3f e5 1a 9f 3f 03 ae 4f 3f 6c fd 87 3f
       0.9183962 1.2430083 0.81124896 1.0624213
000080 3b 43 87 3f 78 d2 72 3f 17 27 25 3f 15 cc 90 3f
       1.0567392 0.948524 0.6451277 1.1312281
000090 dc 37 9f 3f fc 3c 43 3f 6c e1 7c 3f b7 89 8b 3f
       1.2438922 0.7626493 0.98781466 1.0901402
0000a0 10 df 61 3f 0d 6a 49 3f 2d 6e 84 3f cc ee a1 3f
       0.8823099 0.78677446 1.0346123 1.2651
0000b0 1c 50 72 3f 72 37 96 3f b8 cb 88 3f 00 f3 88 3f
       0.9465349 1.173567 1.068717 1.0699158
0000c0 3e 84 ac 3f e0 a6 84 3f a7 62 a8 3f a7 54 31 3f
       1.3477857 1.0363426 1.3155106 0.69269794
0000d0 f0 04 8c 3f d8 e8 3e 3f 7a fb 8c 3f d8 b9 90 3f
       1.0939007 0.7457404 1.1014245 1.1306715
0000e0 7e 5c 51 3f 48 da 5b 3f 10 ac a5 3f e2 7b 36 3f
       0.81781757 0.85879946 1.2943134 0.7128278
0000f0 1b 1a 7e 3f 53 34 06 3f 4f 7c 6a 3f 79 6b ab 3f
       0.99258584 0.5242359 0.9159593 1.3392173

backbone.layer3.1.bias f4 [64]
000000 d5 c0 0d bf 2d f4 e0 be 6f 25 9e be 6c fc 2c bf
       -0.55372363 -0.4393629 -0.30887935 -0.67572665
000010 92 ab d2 be a3 88 0e bf 62 c9 fb bd b6 a0 d0 be
       -0.41146523 -0.5567724 -0.1229427 -0.40747613
000020 ae 4d 0e bf 70 10 5b be 33 54 1e bf d6 6d df be
       -0.5558728 -0.21392989 -0.6184723 -0.43638486
000030 23 db e0 bd 64 80 28 be da b0 e5 be d5 ab e0 be
       -0.10979297 -0.16455227 -0.4486149 -0.43881097
000040 c9 1a ca be 71 76 32 bf a0 9a 79 be 0d b6 10 bf
       -0.3947356 -0.6971198 -0.24375391 -0.5652779
000050 a6 b7 3a be 32 1f ee be a5 56 85 3e 7a 8e eb bd
       -0.18234119 -0.46508175 0.26042667 -0.115017846
000060 68 3f cc be 97 d9 46 be 23 df 5f be 19 e0 c5 be
       -0.39892125 -0.19418941 -0.21862464 -0.38647535
000070 9b 78 24 bf 32 da 61 be 08 a9 31 bf 9f 9d 9e be
       -0.6424653 -0.22055891 -0.69398546 -0.3097963
000080 79 36 b4 be 0e b1 bf bc 5a f5 11 bf 11 4f c1 be
       -0.3519781 -0.023399856 -0.57015 -0.37755635
000090 54 fa e1 be 07 77 35 bf d4 45 43 bd da 1a 98 be
       -0.44136298 -0.70884746 -0.047674015 -0.29707986
0000a0 28 e2 6c be 02 4a e1 3c bb 25 0a bf 15 35 51 bf
       -0.23133147 0.02750111 -0.5396382 -0.8172162
0000b0 24 42 8c be 70 98 65 bc 6d 8d 0b bf 08 6b f5 be
       -0.2739421 -0.014013395 -0.54512674 -0.4793322
0000c0 2c 0c cc be 19 fa 1a bf cc ef 2d bf 76 42 0f 3d
       -0.39853036 -0.6053787 -0.67944026 0.03497549
0000d0 5d 73 5e bf 15 81 18 bd 92 7e f6 be b9 8b da be
       -0.8689478 -0.037232477 -0.4814344 -0.42684725
0000e0 a2 0f 63 bf c9 a4 c8 be 95 d9 45 bf b6 2f 87 be
       -0.8869573 -0.3918822 -0.7728513 -0.26403588
0000f0 45 2c 2e bf b7 08 77 be e0 77 98 be 71 5e 9a be
       -0.680363 -0.24124418 -0.29778957 -0.30150178

backbone.layer3.1.running_mean f4 [64]
000000 14 2b 81 3e 4e a7 b3 c0 61 3a ea bf 95 6f 09 c1
       0.25228179 -5.614173 -1.8299066 -8.589742
000010 dc 3a 91 c0 50 b0 a9 40 c6 90 79 c0 75 dd 5d c0
       -4.538435 5.3027725 -3.8994613 -3.4666417
000020 81 9d c5 c0 44 a4 b7 bf 69 24 a9 c0 1b de 97 c0
       -6.1754766 -1.4347005 -5.2856946 -4.7458625
000030 cb af 10 c0 0e df d5 c0 9d 1b d8 c0 40 1a 2f c0
       -2.2607296 -6.6834784 -6.753371 -2.7359772
000040 54 75 b7 be 37 74 b4 bf 55 82 98 c0 8c f1 d4 c0
       -0.35831702 -1.4097966 -4.7659097 -6.6544857
000050 c3 1d 86 c0 13 8f a6 c0 b6 a4 20 c1 f5 6f 33 c0
       -4.191133 -5.204965 -10.040213 -2.8037083
000060 9b bc 9c c0 41 a0 12 c0 08 c8 23 c0 35 f4 d7 c0
       -4.898023 -2.2910311 -2.559084 -6.7485604
000070 23 9b 05 c0 d0 c2 35 c1 26 a6 b8 be 62 14 8e c0
       -2.0875938 -11.360062 -0.3606426 -4.439988
000080 6e 2b 46 c1 5d f2 c5 c0 24 32 d0 c0 40 2e cc c0
       -12.385603 -6.1858354 -6.5061207 -6.3806458
000090 b1 7d 09 c0 ef 4b 0c c0 f4 78 5f 40 37 cb 1d c1
       -2.1482966 -2.1921346 3.4917574 -9.862113
0000a0 16 32 70 be ee dd 4b c0 ee 3e de c0 04 ea b7 c0
       -0.23456606 -3.1854205 -6.945182 -5.7473164
0000b0 70 28 04 40 41 8d 63 c0 98 6c 17 c1 6e 7c 00 c1
       2.064968 -3.5554965 -9.464012 -8.030378
0000c0 3c 6e 90 c0 28 3d 42 c0 64 1a 06 c1 4f 10 1f c1
       -4.5134563 -3.0349827 -8.381443 -9.941482
0000d0 7c 34 ad c0 ee 8e 46 bf 28 30 2a c1 61 95 ee c0
       -5.412657 -0.77561843 -10.636757 -7.4557347
0000e0 e4 2f 22 bf b8 97 e7 c0 1c d8 e8 c0 e0 b4 c2 3f
       -0.63354325 -7.2372704 -7.2763805 1.5211449
0000f0 e7 e3 85 c0 e9 79 27 c0 b0 e8 c4 c0 24 02 ec c0
       -4.18407 -2.6168158 -6.153404 -7.3752613

backbone.layer3.1.running_var f4 [64]
000000 c0 2a 8c 41 21 25 e3 41 03 76 a7 41 aa cb 03 42
       17.520874 28.39313 20.932623 32.94889
000010 be fa 3a 42 8c 09 a2 41 74 9e eb 41 19 eb a5 41
       46.744865 20.254662 29.45237 20.739794
000020 3d 10 34 42 32 f9 a4 41 53 05 9d 41 47 91 d7 41
       45.015858 20.621677 19.6276 26.945936
000030 5a c5 e4 41 21 38 dc 41 8d 6d 29 42 99 a4 61 41
       28.596363 27.527407 42.356983 14.102685
000040 2c 7d 9b 41 c1 79 23 41 42 ee 81 41 d4 dd 90 41
       19.43612 10.217225 16.241337 18.108315
000050 a4 25 e6 41 90 fa d7 41 3c cf 0c 42 e4 fc 98 41
       28.76838 26.997345 35.202377 19.123482
000060 21 15 fc 40 bb 3a 8f 41 f1 79 88 41 c8 b6 70 41
       7.877579 17.903677 17.059542 15.044624
000070 b3 bb 83 41 7e 39 01 42 32 b5 b2 41 10 03 d1 41
       16.46665 32.306145 22.338474 26.126495
000080 80 6a ee 41 c4 99 70 42 87 8c 67 41 56 26 87 42
       29.802002 60.15016 14.471808 67.574875
000090 f8 8f fc 41 3e df 69 41 a8 71 90 41 e1 de 95 42
       31.570297 14.6170025 18.055496 74.93531
0000a0 e9 45 de 41 d5 f3 d9 41 53 16 15 42 fd 27 b3 41
       27.784136 27.244059 37.2718 22.394526
0000b0 27 23 92 41 fa ff b8 41 67 90 ec 41 cd 76 7b 42
       18.267164 23.124989 29.570509 62.866016
0000c0 86 ad 9e 41 f3 9f cd 41 88 28 02 42 ad 4e c0 41
       19.834728 25.7031 32.53958 24.038416
0000d0 cb 54 45 41 ff d9 bb 41 a2 cd 22 42 8a 39 df 41
       12.333201 23.481443 40.700813 27.903095
0000e0 21 d7 2c 41 85 52 1a 42 ba 51 18 42 6f c7 cc 41
       10.802522 38.580585 38.07981 25.59738
0000f0 0d 05 8d 41 ff e3 ad 41 01 30 2d 42 3c 4b 13 42
       17.627466 21.736326 43.29688 36.82347
