models/relnet100_2.pkl (torch, 916763 bytes, 39 tensors)

backbone.layer1.0.weight f4 [64, 3, 3, 3]
000000 7b 53 f6 be f4 70 a4 be 19 df 37 3e 9a d1 30 3e
       -0.48110566 -0.32117426 0.17956199 0.17267457
000010 16 c0 9a 3e c0 13 87 3e fb 4b d1 3e 72 a6 38 3f
       0.30224675 0.26382256 0.4087828 0.72128975
000020 70 26 31 3f c5 14 ae be 4c 70 6e be 47 25 32 3e
       0.69199276 -0.3400022 -0.23285025 0.17397033
000030 03 a7 17 3e f4 f3 7b 3e e1 81 86 3e af f8 ff 3e
       0.14809804 0.2460478 0.26270965 0.49994418
000040 13 21 4c 3f e6 68 15 3f 1d 40 d0 be 6c e7 52 be
       0.7973797 0.5836319 -0.40673915 -0.20596093
000050 fb 34 80 3c 9d a0 17 3e 4c 55 4d 3e 87 06 6d 3d
       0.015650263 0.14807363 0.2005207 0.057867553
000060 be 53 f6 3e 34 3c 3b 3f a0 ba 26 3f 95 0c 07 bf
       0.48110765 0.7313874 0.6512852 -0.52753574
000070 9a f6 bf be 32 39 01 3e 6f 9d 2c bf d5 a2 d4 be
       -0.3749283 0.12619475 -0.67427725 -0.4153048
000080 64 f2 69 3e 44 0c d8 be e1 ec dc be 17 ac 89 3d
       0.22846371 -0.42196858 -0.43149474 0.06722277
000090 dd 48 eb be 60 2f ce be f8 94 a8 3d 92 da 2d bf
       -0.45954028 -0.4027052 0.082315385 -0.67911637
0000a0 bb 94 07 bf 22 0e a8 3e f5 39 03 bf 70 1b f8 be
       -0.5296132 0.32823282 -0.5126031 -0.48458433
0000b0 66 b0 9f 3d 9c bf c0 be cb 06 9d be 5a 62 ad 3c
       0.07797317 -0.37646186 -0.30669245 0.021165062
0000c0 ac 35 01 bf 86 46 13 bf 9b 88 0e 3e 25 6b d5 be
       -0.5047252 -0.57529485 0.13919298 -0.41683307
0000d0 2b 73 02 bf 53 d3 cd 3c a5 b6 8c 3f a5 96 17 3f
       -0.5095698 0.025125181 1.0993239 0.5921424
0000e0 43 6d b7 3d 57 3e a3 3f 47 20 9a 3f a5 b4 9a 3f
       0.08956387 1.27534 1.20411 1.2086378
0000f0 ef b4 b6 3c 3d f6 2e 3f 37 4e 85 3f 6a ea 34 3f
       0.022303073 0.6834448 1.0414494 0.7067019
000100 23 69 ac 3e 22 4e 4f be 20 e5 9e 3f b9 e9 83 3f
       0.33673963 -0.20244649 1.2413673 1.0305701
000110 3e 10 68 3f d3 74 2a bd 01 87 3c 3f 43 12 5f 3f
       0.90649784 -0.04161532 0.736435 0.8713724
000120 43 fd 0d 3f 06 67 b1 3d 82 09 5b be 6a c4 9c 3f
       0.5546457 0.08662228 -0.21390346 1.2247441
000130 80 8c 9b 3f f7 82 a8 3f ab 18 cd 3e 83 64 9c 3f
       1.2152252 1.3164967 0.40057883 1.2218174
000140 36 7b c1 3f 60 1d 54 be 1e ff b1 be 0d 5f a7 be
       1.5115726 -0.2071433 -0.3476495 -0.32689705
000150 06 74 89 be c5 4e 28 be c4 87 05 bf 82 36 4b bf
       -0.2684633 -0.16436298 -0.52160287 -0.7938005
000160 be 70 49 bf bd da 60 bf 33 fe 0c bc fa da ff bc
       -0.78687656 -0.8783377 -0.008605528 -0.031232346
000170 be 79 0a bc a4 fe 06 be 68 43 b3 3a 57 63 49 be
       -0.008451877 -0.13183075 0.0013676705 -0.19666801
000180 c9 b9 10 bf 14 fe 0a bf d0 0b 06 bf ce a7 e3 bd
       -0.56533486 -0.5429394 -0.52361774 -0.111159906
000190 2c 36 26 be 2e c7 24 3c 13 80 d0 bd 8d 74 a6 bd
       -0.16231602 0.010057254 -0.10180678 -0.08127699
0001a0 22 48 47 be 07 90 04 bf 11 94 0f bf 65 b0 18 bf
       -0.1946111 -0.5178227 -0.56085306 -0.59644157
0001b0 74 22 e0 c0 bd 48 8e c0 29 9b 88 3f c4 38 71 c0
       -7.0042057 -4.446379 1.0672351 -3.7690897
0001c0 28 49 eb 3f 3b df 77 40 46 e6 f2 bf 94 ef 04 40
       1.83817 3.873 -1.8976524 2.0771227
0001d0 2e 7c 42 40 b2 42 e3 c0 7b 3f 8d c0 19 b8 89 3f
       3.0388293 -7.1018915 -4.413999 1.0759307
0001e0 1e c5 7e c0 33 51 f0 3f f4 43 76 40 62 d5 08 c0
       -3.980781 1.877478 3.8478975 -2.1380239
0001f0 75 6d 01 40 ab 68 49 40 f6 cb f0 c0 2c 98 94 c0
       2.0223057 3.1470134 -7.5248976 -4.6435757
000200 b5 22 7d 3f 8a 8f 8f c0 94 6c b8 3f 57 c7 6e 40
       0.98881084 -4.486272 1.4408135 3.7309167
000210 d8 ec 25 c0 80 bd d0 3f b3 ea 39 40 4b d4 02 c1
       -2.5925808 1.6307831 2.90495 -8.176829
000220 f5 e3 aa c1 a4 2f 96 c1 11 ea 7a 40 97 5c 98 41
       -21.361307 -18.773262 3.9205363 19.04521
000230 38 59 83 bf ae ad 2c bf 77 70 7e 40 2f 3b 0c 40
       -1.0261602 -0.67452514 3.9756143 2.1911123
000240 44 ce 08 c1 70 fa ab c1 d9 e1 97 c1 cf 2f 62 40
       -8.550358 -21.497284 -18.985277 3.534168
000250 e8 ed 99 41 2d 40 6e bf 7a e8 4b bf 57 ee 86 40
       19.241165 -0.93066674 -0.79651606 4.216594
000260 da 3f 24 40 41 15 05 c1 2c f9 a9 c1 c5 89 94 c1
       2.5663972 -8.317689 -21.246666 -18.56727
000270 4c ad 6b 40 08 8a 9a 41 0f 70 6b bf bd 58 69 bf
       3.6824522 19.317398 -0.9196786 -0.9115103
000280 ed ed 7e 40 3a cd 08 40 78 c0 3e bf eb 81 72 3e
       3.9832718 2.137526 -0.74512434 0.23682372
000290 e8 55 37 3e c9 c0 5f bf 4b fb 97 3e f2 12 22 3f
       0.17903864 -0.8740354 0.2968391 0.6331016
0002a0 bf ab 63 bf e7 fc a2 be 5c 9e 46 be 47 2f 3e bf
       -0.8893394 -0.31833574 -0.19396347 -0.7429089
0002b0 37 9e d2 be 51 84 b6 be 3a 47 67 bf fc 05 c3 be
       -0.41136333 -0.35647824 -0.9034306 -0.38090503
0002c0 c3 d7 61 bd 5d 48 5b bf 54 cd 19 bf 3e 5f 23 bf
       -0.055137407 -0.8565729 -0.6007893 -0.63817203
0002d0 f4 69 3a bf f9 8b 33 bf a0 0d 2b bf f0 6f 2d bf
       -0.7281792 -0.70135456 -0.66817665 -0.6774893
0002e0 dd 71 1a bf 51 24 b8 be ab f6 42 bf 47 f9 4a bf
       -0.6032999 -0.35965207 -0.76157635 -0.7928662
0002f0 6a 98 27 bf 97 a1 23 40 c4 b7 aa 3f 86 3b d6 bf
       -0.6546694 2.5567377 1.3337331 -1.6736915
000300 85 f4 09 40 59 36 37 40 0c e3 d5 3f 22 ac 9d 3d
       2.1555493 2.862692 1.6709914 0.07698847
000310 f9 47 06 40 50 7a 09 40 50 66 19 40 ff 51 a0 3f
       2.0981429 2.1480904 2.3968697 1.2525023
000320 c6 84 ea bf 78 5c 00 40 d1 47 39 40 e3 0c dd 3f
       -1.8321769 2.0056438 2.8950083 1.7269558
000330 5e e4 78 3d 97 41 f4 3f c7 00 06 40 e2 da 16 40
       0.060764663 1.9082516 2.0937974 2.3571095
000340 e7 53 a8 3f 61 20 f2 bf 60 b3 09 40 fa 94 3e 40
       1.3150605 -1.8916131 2.1515732 2.9778428
000350 12 18 db 3f 16 d3 d6 3c 8d e7 0a 40 9d 66 1a 40
       1.7116721 0.0262237 2.1703827 2.412513
000360 1c 35 34 40 97 81 29 3c 5a c7 32 c0 2a 40 4b 41
       2.8157415 0.010345838 -2.7934175 12.703165
000370 79 92 64 40 85 66 e4 c0 0e 66 3c 41 98 d7 0f c1
       3.57144 -7.1375146 11.774916 -8.990135
000380 6f bc a3 c1 cc 2b 3c 40 0c 9c 90 bc 15 3c 39 c0
       -20.467009 2.9401731 -0.017652534 -2.894292
000390 da 0e 4f 41 cc dd 5f 40 18 2a ea c0 7e 2a 3e 41
       12.941126 3.4979124 -7.3176384 11.885374
0003a0 86 7d 11 c1 a2 f4 a6 c1 53 8b 47 40 24 08 62 bd
       -9.093145 -20.86945 3.1178787 -0.055183545
0003b0 d0 53 4a c0 ee 1b 52 41 53 cc 63 40 9d 63 f0 c0
       -3.1613655 13.131819 3.559346 -7.51216
0003c0 92 32 43 41 4d 69 0d c1 18 f7 a5 c1 30 5e 8b 3e
       12.199846 -8.838208 -20.745651 0.27220297
0003d0 f8 ad f3 3e 6d 02 79 3e 06 5a ae 3e 91 ea e7 3e
       0.47593665 0.24317332 0.34053057 0.45296147
0003e0 5a 63 c3 3e 5b bc da 3e 5e e6 16 3f db 32 38 3f
       0.38161737 0.4272183 0.5894526 0.719526
0003f0 62 a5 08 3f 10 e2 1f 3f c2 28 06 3f 49 7c 45 3e
       0.53377354 0.6245432 0.5240594 0.19285692

backbone.layer1.0.bias f4 [64]
000000 03 a7 4a c1 9e b6 46 c1 0e f6 3f c1 cf e0 33 c1
       -12.665774 -12.419584 -11.997572 -11.242385
000010 59 ed 2e c1 64 e6 33 c1 e1 26 23 c1 64 25 3f c1
       -10.932946 -11.243748 -10.196992 -11.946629
000020 1b cb 42 c1 81 37 38 c1 66 a5 43 c1 da 77 48 c1
       -12.174586 -11.513551 -12.2278805 -12.529261
000030 93 0d 4b c1 17 7b 44 c1 9c cc 54 c1 b3 aa 0b c1
       -12.690814 -12.280051 -13.299953 -8.729175
000040 7c d2 21 c1 bc c5 14 c1 3e e9 18 c1 fc b8 43 c1
       -10.113888 -9.298275 -9.556944 -12.232662
000050 3f 43 47 c1 81 ea 4a c1 2e 29 49 c1 af b1 45 c1
       -12.4539175 -12.682252 -12.572554 -12.35588
000060 b3 fb 39 c1 9d ea 1e c1 5e 1d 4c c1 05 be 55 c1
       -11.62395 -9.932279 -12.75717 -13.3588915
000070 c8 ff 0d c1 c2 17 52 c1 2d 28 4b c1 6f fc 45 c1
       -8.874947 -13.1308 -12.697309 -12.374129
000080 27 50 10 c1 50 a0 49 c1 00 af 05 c1 48 ad 46 c1
       -9.019568 -12.601639 -8.355225 -12.417305
000090 50 e3 44 c1 8e 04 34 c1 c8 7d 49 c1 27 ed 46 c1
       -12.305496 -11.251112 -12.593208 -12.4328985
0000a0 a2 d0 35 c1 48 d7 49 c1 47 f7 48 c1 e0 32 41 c1
       -11.363436 -12.615059 -12.56037 -12.074921
0000b0 f8 15 2f c1 5b b7 34 c1 bf 23 47 c1 6e 49 46 c1
       -10.942863 -11.2947645 -12.446227 -12.392927
0000c0 e1 4b 4f c1 5c b0 4e c1 3a 37 42 c1 39 c3 33 c1
       -12.956025 -12.9180565 -12.138483 -11.235162
0000d0 c0 24 3d c1 fe f2 27 c1 1d f3 39 c1 70 6d 50 c1
       -11.821472 -10.496824 -11.621854 -13.026718
0000e0 8a 3f 2d c1 b4 62 50 c1 40 ce 4c c1 2c fe 4b c1
       -10.828012 -13.024097 -12.800354 -12.749554
0000f0 04 bc 37 c1 fa da 3d c1 f5 f5 28 c1 fb 53 3d c1
       -11.483402 -11.865961 -10.560048 -11.833003

backbone.layer1.1.weight f4 [64]
000000 84 6e 14 3e 69 cd 92 bd dc 74 1b 3f 39 ce e4 ba
       0.14495283 -0.07168085 0.6072519 -0.0017456479
000010 8f a3 7f 3e 21 3c 12 41 0f e8 b3 3e 75 61 2e 3f
       0.24964736 9.13968 0.35137984 0.6811746
000020 36 fe ee be 97 a4 a8 3e ca 01 a7 3e 7c cf f7 3e
       -0.46678323 0.32938072 0.32618552 0.48400486
000030 52 c4 2f 41 ac 89 c1 3d eb be 5e be 37 97 78 3d
       10.98543 0.09450087 -0.21752517 0.060691085
000040 d4 9b 4d bf 0e 37 f5 be ce e3 7b 3d 2a 0b 49 3f
       -0.803159 -0.47893566 0.06149655 0.7853266
000050 1e b9 35 3d 33 5c 39 41 13 99 56 3d 7b b4 8a bc
       0.044365995 11.58501 0.052392077 -0.016931763
000060 5f e2 ec 3e eb c4 39 41 59 d1 77 c1 80 0b 62 40
       0.46266457 11.610576 -15.48861 3.531952
000070 23 48 07 bf 23 f2 0d 41 04 9c 97 3e 60 07 85 41
       -0.52844447 8.871615 0.29611218 16.628601
000080 f8 37 86 3e ed 12 78 40 a4 f2 68 3e 2b ed 12 3e
       0.26214576 3.8761551 0.2274881 0.14348285
000090 c6 94 8f 3e 14 4c 0c 3d 23 41 48 3d c0 f4 09 bf
       0.28043193 0.03425224 0.048890244 -0.53889084
0000a0 3f e8 58 3e 92 aa 80 3f c8 1c a3 41 ec 85 66 41
       0.21182345 1.0052054 20.389053 14.407696
0000b0 4d 7c df 3d f7 b7 f2 3e 61 2c fb 40 f0 64 ac be
       0.1091238 0.4740598 7.8491673 -0.3367076
0000c0 e7 bc 6b be 0e c7 5c bf 5c e9 d9 be c2 b4 56 bc
       -0.2302128 -0.86241233 -0.42560852 -0.013104619
0000d0 c4 31 63 3f 45 2e ab 3e f6 56 22 3d 45 a0 64 41
       0.8874781 0.33433738 0.039633714 14.289128
0000e0 19 14 f0 bd 24 59 a7 3e 1f ee 47 3f b4 49 16 3e
       -0.11722583 0.32685196 0.7809772 0.14676553
0000f0 32 a7 9a 3d 04 e5 c9 40 4a 98 55 41 52 e4 31 be
       0.07551421 6.309206 13.34968 -0.17372254

backbone.layer1.1.bias f4 [64]
000000 41 02 35 bf 6a 2e 85 bf 21 6b 0f c0 f3 50 c1 bd
       -0.70706564 -1.040479 -2.2409136 -0.09439268
000010 12 a0 29 c0 1e 5e 7a bf cd 86 8b bf 66 38 4d c0
       -2.650395 -0.9779986 -1.0900513 -3.2065673
000020 60 9d 14 41 b8 89 b6 bf cd 4c be bf 57 34 e2 bf
       9.288422 -1.4260778 -1.4867188 -1.7672223
000030 ef 5d b8 41 33 5d 21 c0 62 6e 84 40 e2 52 ca be
       23.045866 -2.5213134 4.1384745 -0.3951636
000040 98 88 38 c0 a4 95 89 c0 a0 2a 1f bf 9f 9f 35 c0
       -2.883337 -4.2995167 -0.62174416 -2.8378675
000050 22 1e 86 bf 61 5f b4 40 4b f3 28 bf e9 d5 1c bf
       -1.0477946 5.636643 -0.65996236 -0.612639
000060 c4 0a cd bf 38 cf 7b 41 04 c1 43 40 74 8c 8f 41
       -1.601891 15.7380905 3.0586557 17.94358
000070 62 84 ff bf 60 d3 48 41 d4 e7 91 bf f1 c5 b3 40
       -1.9962275 12.551605 -1.1398873 5.617913
000080 64 ca 8e bf c6 41 f3 41 3e 50 59 bf 96 61 2d bf
       -1.1155515 30.407116 -0.84888065 -0.6772703
000090 ad c9 5a c0 74 8a 1e be 0d 50 a1 40 d1 72 20 c0
       -3.4185593 -0.15482503 5.041022 -2.5070078
0000a0 ca 7b 62 bf 66 40 ac c0 b4 6f 31 41 ee c9 27 c1
       -0.8847014 -5.382861 11.089771 -10.486799
0000b0 ed 50 d7 bf 01 81 ee bf d2 63 96 41 7d a4 a4 bf
       -1.6821572 -1.8633119 18.79874 -1.2862698
0000c0 11 46 38 c0 ae 50 b0 40 f5 7d 39 c0 7f c8 eb be
       -2.8792765 5.5098486 -2.8983128 -0.46051404
0000d0 48 ad 54 c0 1e 85 95 bf 2f 1d 7d be 46 86 23 be
       -3.3230762 -1.1681249 -0.24718164 -0.1596919
0000e0 41 33 d0 bf a3 a2 a9 bf 47 9e 54 41 08 89 1e bf
       -1.6265641 -1.3252758 13.288642 -0.61927843
0000f0 fd 70 4a bf 35 24 28 41 73 b6 f9 40 dc d5 46 bf
       -0.79078656 10.50884 7.8035216 -0.77670074

backbone.layer1.1.running_mean f4 [64]
000000 4a 46 1e c1 7b 56 80 c1 9c 99 12 c0 56 67 76 c1
       -9.89216 -16.042227 -2.2906256 -15.4002285
000010 ba 8f a2 c1 5c 11 27 c2 96 16 82 c1 59 57 db 40
       -20.320179 -41.766953 -16.261028 6.8544126
000020 f2 86 c3 c1 28 5a e1 c0 1d 4b 7e c1 60 48 03 c1
       -24.440891 -7.0422554 -15.893338 -8.20517
000030 6c f4 b7 c1 78 0a da 3f 79 91 d7 c0 89 02 cb c0
       -22.994347 1.7034445 -6.736508 -6.3440595
000040 24 31 3f 41 28 e1 36 41 8d 78 9d 40 64 de b0 c1
       11.949497 11.42997 4.9209657 -22.10859
000050 ca 39 9b 40 26 bc 14 c1 6c da 07 c1 05 66 80 c1
       4.8508043 -9.295935 -8.490826 -16.049814
000060 7b 1d 66 c1 9e ed 3c c0 15 24 54 c1 ea a9 59 c1
       -14.382197 -2.952003 -13.258809 -13.603983
000070 51 94 c1 be 59 8c 7e c0 30 40 fd c0 35 aa 40 c1
       -0.3780847 -3.9773161 -7.9140854 -12.041554
000080 c4 c7 54 c1 1a 56 40 c1 d7 19 63 c1 ce 55 02 c1
       -13.298771 -12.021021 -14.193809 -8.145948
000090 47 f8 a8 c1 c5 34 6e c1 c7 74 86 c1 7c 5c aa c1
       -21.12123 -14.887883 -16.80702 -21.295158
0000a0 48 4c 62 c1 86 06 80 41 e5 a7 3d c1 72 15 5a c2
       -14.143623 16.003185 -11.85349 -54.520943
0000b0 ee 16 67 c1 07 1c e2 c0 74 84 53 c1 12 c2 d1 c1
       -14.443098 -7.0659213 -13.219837 -26.21976
0000c0 00 12 37 c1 bf 46 7f c1 bc 2b e6 c1 9d 36 70 c1
       -11.441895 -15.954772 -28.771355 -15.013333
0000d0 e3 39 ff c0 55 96 6c c1 80 be dd c0 ec ad 6d c1
       -7.9758162 -14.786702 -6.9295044 -14.854961
0000e0 c9 6a da c1 c7 58 76 c1 dc 02 6b c1 a8 ae 70 c1
       -27.302141 -15.396674 -14.688198 -15.042641
0000f0 5f e4 d4 c0 90 18 ab c1 d2 1f 63 c1 76 06 f0 c0
       -6.6528773 -21.386993 -14.195269 -7.5007887

backbone.layer1.1.running_var f4 [64]
000000 ef 6e e4 3f a9 cb 38 40 f0 8f a2 41 c6 d1 6c 40
       1.7846354 2.8874304 20.320282 3.7003036
000010 e6 b0 fa 41 12 92 8b 43 19 82 fa 40 d5 2c 9a 42
       31.336376 279.14117 7.828381 77.08756
000020 77 b5 dc 42 25 4f 88 40 c8 8a 37 40 32 9e 80 40
       110.35442 4.259661 2.8678455 4.019311
000030 84 fe 49 42 d0 dd 89 42 0b c3 da 42 3b 1f b0 3f
       50.49855 68.93323 109.38094 1.3759531
000040 ab f2 ce 42 bf c3 02 43 be 4f 31 42 49 d9 a4 41
       103.47396 130.76463 44.327873 20.606096
000050 47 b9 87 42 28 34 f4 42 84 ad 65 40 48 bb 3e 40
       67.86187 122.10187 3.5887156 2.9801807
000060 89 bd d1 3f 84 20 e2 41 98 19 da 42 ef 3a b8 42
       1.6385967 28.265877 109.04999 92.115105
000070 6f ca 78 41 6f bf 36 42 4b 42 9d 40 de 5e 09 43
       15.549422 45.686947 4.9143424 137.37057
000080 0b 2f 82 40 dd 3f f4 42 e3 d2 ec 40 0d 85 76 40
       4.0682425 122.12473 7.400743 3.8518708
000090 b8 65 bb 42 90 c2 36 40 a7 69 fc 42 8c 38 88 41
       93.69867 2.8556252 126.20635 17.02761
0000a0 25 13 df 3f 73 d7 31 43 37 34 e0 42 3e b0 e8 43
       1.7427717 177.8416 112.10198 465.3769
0000b0 71 d4 2b 40 8d 0d 76 40 70 23 07 42 9a f4 24 42
       2.6848414 3.844577 33.784607 41.23887
0000c0 99 a3 99 42 91 a4 a2 42 82 5a 6c 42 45 1e 45 40
       76.81953 81.32142 59.088387 3.0799725
0000d0 3d 81 47 40 de ea 80 40 19 2a 97 40 11 c9 a5 42
       3.117263 4.0286703 4.723889 82.89271
0000e0 5c 9b 69 42 df a8 9f 3f e4 9c d0 42 e3 2e 95 3f
       58.40172 1.247341 104.30643 1.1654934
0000f0 1d 4e 9f 40 37 fc 4f 42 ca ce f1 42 e9 fa 81 40
       4.9782853 51.996304 120.903885 4.0618787

backbone.layer2.0.weight f4 [64, 64, 3, 3]
000000 a2 8e e9 be 8e d4 5d bb d7 3a 7c bf 9f 82 9a 3e
       -0.45616633 -0.0033848616 -0.9852728 0.3017778
000010 13 de 1b 3f 34 49 04 3f 6d 79 a3 3e 6c ac b8 3e
       0.60885733 0.516742 0.31928578 0.36069047
000020 70 0a b2 3e ee 2e 07 3f 53 bb d8 3e 24 9b 68 3e
       0.34773588 0.52805984 0.42330417 0.22715431
000030 a2 4d ca 3e 21 3f fd 3b e4 15 84 3e 40 a6 1b 3f
       0.39512354 0.007728473 0.2579795 0.6080055
000040 c3 a2 77 3e 35 50 f2 3e 47 fe 76 bf 27 9b bc bf
       0.24183182 0.47326818 -0.96481746 -1.4734849
000050 94 ac 23 bf 14 60 3c be d4 17 eb 3e 5b b6 4b 3f
       -0.6393521 -0.18396026 0.45916617 0.7957513
000060 28 33 a5 3f 6b 7a 93 3f 0e af 94 3f b5 f6 c9 be
       1.2906237 1.1521734 1.1615922 -0.39446035
000070 8d 7a b8 3e c3 19 69 3e b7 bb 78 3e 8b f6 df 3e
       0.36031 0.22763734 0.24290358 0.43742785
000080 6a 8f df 3e 12 b7 ad 3c bb a0 98 3d fd 47 e3 3d
       0.43664104 0.021205459 0.07452532 0.11097715
000090 62 33 e9 3f 85 52 25 be ed 37 03 c0 c1 30 64 3f
       1.8218806 -0.1614476 -2.0502884 0.8913689
0000a0 ce 13 cb 3e fe 3e 28 c0 fb 3e a0 bf 6e 09 0d bf
       0.39663547 -2.6288447 -1.251922 -0.55092514
0000b0 c2 ac d0 bf 6e e8 76 41 e2 c0 c2 41 19 69 47 41
       -1.6302722 15.431746 24.344181 12.463159
0000c0 07 31 ef 40 40 af 73 41 4b b1 96 41 23 00 41 c1
       7.474735 15.230286 18.836569 -12.062533
0000d0 1b 62 48 c1 65 6e d8 c0 9a 78 91 3e 77 53 02 3f
       -12.523952 -6.763476 0.28412324 0.5090861
0000e0 bc ad ff be 5d 5b bf 3d c2 3b d5 3e ed 3f 9b be
       -0.49937236 0.09343598 0.41647154 -0.3032221
0000f0 44 e7 b5 be 6c 50 e8 be 2f 2f ea be 3a 1f 34 bf
       -0.35528004 -0.45373857 -0.45739123 -0.7036015
000100 82 3a 62 3f ac 98 a1 3f 8f 0c 0b 40 b0 1d ca 3f
       0.88370526 1.2624717 2.1726415 1.579031
000110 dc d1 19 40 7c 74 1f 40 4f 22 e6 3f bf 75 cb 3f
       2.4034338 2.4914846 1.797922 1.5895308
000120 18 f7 11 3f 58 6a 86 c0 27 71 20 c1 19 46 69 40
       0.5701766 -4.2004814 -10.027625 3.6449034
000130 50 06 58 be ec 35 54 40 35 85 43 c0 f2 b0 40 bf
       -0.21096158 3.3157911 -3.0550053 -0.7527
000140 57 42 c0 40 2f 7f 3c 3e ce 76 1b 3f 40 93 41 3e
       6.008098 0.18407892 0.60728157 0.18903828
000150 12 82 35 3f dd 0e ee 3f 06 a3 22 3d 83 5c 66 3f
       0.70901597 1.8598286 0.039706253 0.8998491
000160 5c d5 e0 3e 43 7f 74 be 67 28 05 3e 6e 43 0d 3e
       0.4391278 -0.23876671 0.13003694 0.13795254
000170 fe b2 51 3d 7c f4 e7 be 36 1a e2 bc a4 52 e6 3e
       0.05119609 -0.45303714 -0.027600389 0.44984925
000180 b2 f8 af be 67 c0 4d 3e 58 78 03 3e db 48 ad bd
       -0.34369427 0.20092927 0.12838876 -0.08461162
000190 01 91 90 3c 4f 08 06 bf 77 b8 28 3e 71 f2 4d 3f
       0.017647268 -0.5235643 0.16476618 0.8044806
0001a0 30 69 a1 3e b7 24 c1 3e 99 23 11 3f c4 63 d6 3e
       0.31525564 0.37723324 0.5669494 0.4187299
0001b0 b4 dd 86 41 1a 15 30 41 cd 06 a8 c0 66 44 47 41
       16.858253 11.005152 -5.25083 12.454199
0001c0 9f 7e 0c c1 70 50 91 c1 71 b0 20 bf 52 14 eb c0
       -8.780913 -18.164276 -0.6276923 -7.3462305
0001d0 ac c6 49 c1 7c 0c e8 3f ce d8 95 3f 18 41 7c 40
       -12.611004 1.812881 1.1706789 3.941473
0001e0 8a 4d 20 40 02 8b 20 40 9e 1f 57 3f b0 08 13 c0
       2.5047326 2.5084844 0.8403262 -2.2974052
0001f0 38 21 89 c0 86 f2 9f c0 5f 0e 36 bf 0b fb a3 40
       -4.285305 -4.998355 -0.7111568 5.124395
000200 e6 bd cb 3f 6c c3 ad c0 00 46 41 bf 53 9b be 40
       1.5917327 -5.430105 -0.75497437 5.9564605
000210 94 93 99 40 5c 73 80 3f e5 c3 f7 3f 88 be 22 3f
       4.799265 1.0035205 1.9356657 0.6357198
000220 2a 2b ac 3e 7f ab fa 3e 1d e0 ca 3e 1f b6 88 be
       0.33626682 0.48958966 0.3962411 -0.26701447
000230 91 1b 86 bd 31 68 3e 3f 7b 02 9e 3e 53 72 51 3d
       -0.065482266 0.74377733 0.30861267 0.05113442
000240 f2 9f 02 bf d7 70 ae 3e f3 c3 16 bf c2 11 a2 be
       -0.5102531 0.34070465 -0.58892745 -0.31654173
000250 04 e7 3c bf 31 40 d2 be 7a 51 82 3e eb 97 04 3e
       -0.7379 -0.410646 0.25452787 0.12948577
000260 cf b4 47 3e a7 ac e2 bf c4 33 91 3f 8d 39 a4 c0
       0.19502567 -1.7708939 1.1343923 -5.1320252
000270 18 8f 1c 40 03 4f 79 3f fe 8c 11 c0 f1 43 52 40
       2.4462337 0.9738619 -2.2742305 3.2853968
000280 d7 04 1e 3c 24 55 60 40 e7 fc bb bd 07 95 21 bd
       0.009644709 3.5051966 -0.09179097 -0.039448764
000290 b7 37 89 be a0 a6 7e be f6 a6 21 be c4 e0 58 bd
       -0.2680032 -0.2486825 -0.15786347 -0.05294873
0002a0 76 ad 0e bd 3b ab 35 3d 7b 61 49 bd d2 11 86 3f
       -0.034833394 0.04435275 -0.04916523 1.0474188
0002b0 db 84 30 bf 27 db 1a bf 3b ee 69 bf 36 7a c7 bf
       -0.6895272 -0.6049065 -0.91379136 -1.5584171
0002c0 0a a4 c1 bf c2 a4 3d bf 2e 86 b0 bf 3c cf 94 bf
       -1.5128186 -0.74079525 -1.3790948 -1.1625743
0002d0 02 7a 72 c0 d3 af 24 c0 d3 b8 57 3e f9 ad 45 c0
       -3.7886968 -2.5732315 0.21066599 -3.0887434
0002e0 c2 d7 00 c0 8b 19 42 3f e5 ba 6e bf e7 b8 38 bf
       -2.0131688 0.75820225 -0.9325393 -0.7215714
0002f0 4f 06 8f be ac 10 26 41 6a f4 dd 3f 06 60 c1 c0
       -0.279345 10.37907 1.7340214 -6.0429716
000300 1c 3e 24 41 66 e0 a0 c0 b6 98 4d c1 7e ef e7 c0
       10.265163 -5.0273924 -12.849783 -7.247985
000310 21 43 44 c0 cd ea d8 c0 b0 f2 11 3f 70 86 c6 3e
       -3.0665972 -6.778662 0.57010937 0.38774443
000320 ae 25 2d 3f 13 07 7c be d2 65 6a be de f0 92 3e
       0.6763562 -0.24612074 -0.22890404 0.28699392
000330 ff 9b 2b 3f 3b d8 22 3e b4 2a 1b 3f 0c 90 11 3f
       0.67034906 0.15902798 0.60612035 0.56860423
000340 42 d3 d5 3e a5 16 02 3d 67 1f c8 3e 11 af e4 bd
       0.4176274 0.031759877 0.39086458 -0.11166204
000350 e0 c9 67 3e 7f bc a7 3e 41 c6 d1 3d b5 42 98 3e
       0.22635603 0.32761 0.10242892 0.29738393
000360 9b 12 e2 3e 05 aa 3f 3f fd 3c 9e bd 5c 34 ca 3e
       0.4415482 0.74868804 -0.07726476 0.39493072
000370 5a 2a 6d 3e 3d 39 e0 3c 15 c4 56 3e 27 49 ee 3d
       0.23160687 0.027371043 0.20973237 0.116350465
000380 0c b9 d6 be d8 ea 02 c1 fe 6c 46 40 4d 15 0f 41
       -0.41938055 -8.182335 3.1004024 8.9427
000390 03 c1 7a c1 28 12 c4 c0 a8 d6 b2 41 a3 99 d8 c0
       -15.672122 -6.1272163 22.354813 -6.7687545
0003a0 fc 57 12 c1 68 55 49 3f b6 61 94 40 08 e8 bc 40
       -9.146481 0.78645945 4.6369276 5.903324
0003b0 0c be 0e c0 fd a6 fd 40 a0 ab df c0 c9 5b 7e c1
       -2.2303495 7.9266343 -6.9897003 -15.8974085
0003c0 db 11 84 40 48 83 74 c0 85 44 39 c1 bc e0 67 41
       4.1271796 -3.8205128 -11.579228 14.492367
0003d0 2a 28 88 41 4e 25 35 40 ce e1 27 40 49 e8 95 40
       17.019611 2.830402 2.623157 4.684605
0003e0 80 e1 4d 40 f2 8b 1f c1 eb 75 67 c1 e1 db c7 c0
       3.2168884 -9.971666 -14.466289 -6.2455907
0003f0 18 3d e8 3e 01 5a 1d 3f b8 7e 06 3f 9a 9c b9 3e
       0.4535911 0.6146546 0.5253711 0.3625229

backbone.layer2.0.bias f4 [64]
000000 b0 8d 3b 42 66 d8 3a 42 dc a8 38 42 02 0b 10 42
       46.888367 46.711327 46.1649 36.01075
000010 8a 54 33 42 f5 bd 15 42 3b d1 ee 41 13 19 34 42
       44.832558 37.435505 29.852163 45.024487
000020 69 7d 5a 42 d0 30 26 42 f6 3d 02 42 05 e2 36 42
       54.62247 41.54767 32.56051 45.720722
000030 6f 63 33 42 b5 aa 2a 42 63 84 2c 42 07 0a 55 42
       44.847103 42.666706 43.129284 53.259792
000040 38 16 2e 42 30 ab 37 42 f6 39 28 42 4f d1 49 42
       43.521698 45.917175 42.056602 50.454403
000050 81 96 2d 42 10 51 31 42 29 63 39 42 4b c9 27 42
       43.396976 44.329163 46.346836 41.946575
000060 05 e6 41 42 45 2d 37 42 af 4e 33 42 7f e2 06 42
       48.47463 45.79421 44.82684 33.721188
000070 af 6c 3a 42 0f fc 3a 42 aa 45 2d 42 75 e8 13 42
       46.606136 46.74615 43.31803 36.97701
000080 63 5c 04 42 7f 5b 2a 42 b1 b9 18 42 f9 1c 30 42
       33.09022 42.58935 38.18134 44.028294
000090 8b fc 3a 42 00 a1 1f 42 35 5d 2f 42 b9 a2 62 42
       46.746624 39.907227 43.841022 56.65891
0000a0 8a bd 25 42 45 54 20 42 1d 9b 20 42 97 b7 2e 42
       41.435097 40.082294 40.151478 43.679287
0000b0 de 27 4c 42 15 9b 32 42 f0 6a 2c 42 94 53 29 42
       51.038933 44.651447 43.10443 42.33162
0000c0 03 71 28 42 44 a9 15 42 c6 09 45 42 d9 1b 27 42
       42.110363 37.4153 49.259544 41.777195
0000d0 45 ca 12 42 73 d3 5e 42 a7 d5 29 42 62 d1 2d 42
       36.69753 55.706493 42.458645 43.454475
0000e0 fc 2b 31 42 c6 8f 3b 42 fc 47 2e 42 7f 96 22 42
       44.292953 46.890404 43.570297 40.64697
0000f0 27 b7 4e 42 00 87 2e 42 9b 30 2d 42 28 11 37 42
       51.67886 43.631836 43.297466 45.766754

backbone.layer2.1.weight f4 [64]
000000 be 04 82 41 df a2 a8 3d a8 12 08 3e cf e8 a2 40
       16.252316 0.0823419 0.13288367 5.090919
000010 e8 4e 7b 41 a1 01 3f 41 4a f2 a8 bb ce 57 a3 41
       15.706764 11.937898 -0.005155836 20.417873
000020 2e 93 49 41 e7 7d 85 41 5a c7 28 bc 0a 13 42 3e
       12.598433 16.686476 -0.010301435 0.18952575
000030 0d 1c 46 41 98 fd 8a 3d 61 65 02 3c f9 91 1e be
       12.381848 0.067866504 0.007958741 -0.15485372
000040 2a 5c 89 40 02 f8 27 3e ca 1e a3 3e e1 51 bd 3d
       4.2925005 0.16403201 0.31859428 0.09244133
000050 86 79 48 3e 62 e2 39 bf 09 db 0b 41 a9 c5 40 41
       0.19577608 -0.7261106 8.740975 12.048257
000060 50 0a 8e be 29 0f f1 bd 04 88 8b 41 54 22 9d 3e
       -0.27742243 -0.1177047 17.441414 0.30690253
000070 84 72 a4 40 e8 b9 f4 bc 12 1a d7 3e 7e 5b fe 40
       5.138979 -0.029873803 0.42012078 7.9486685
000080 c9 cb 2c c1 03 4c 29 41 70 b3 d3 3d c0 15 43 3e
       -10.799752 10.581058 0.10336959 0.19051266
000090 ef 85 65 3e af 10 95 3e 36 7f 65 41 3b 47 70 41
       0.22414373 0.2911429 14.343557 15.01739
0000a0 0a 61 d0 3d 1c 92 5a 41 78 e1 7e 3e 72 d1 80 bd
       0.10174759 13.660671 0.24890697 -0.062899485
0000b0 15 5a 56 41 c3 bf c2 3e 19 ce f5 bd 6f 02 b0 40
       13.396993 0.38036928 -0.12002201 5.500297
0000c0 82 0a 88 3e b4 17 19 41 55 61 3c 41 41 35 76 41
       0.26570517 9.568287 11.773763 15.388001
0000d0 86 fc 4d 3d 42 3c 83 3e f9 76 2b 41 90 8a 2a 41
       0.050289653 0.2563191 10.716546 10.658829
0000e0 4e a7 25 41 7f 3f c1 bc 0a 82 13 41 26 78 a2 bd
       10.353346 -0.023589848 9.219248 -0.07933073
0000f0 f4 af e2 3e 65 20 cb 3c 2b 23 c2 3d c1 3f 21 41
       0.44274867 0.02479572 0.09479364 10.078065

backbone.layer2.1.bias f4 [64]
000000 2d 5c 43 c1 0b e1 d1 bf 3e 23 10 c0 5e ad 0f 40
       -12.210004 -1.6396803 -2.252151 2.2449565
000010 5e 21 01 c1 bc c0 1d c1 de 97 8a bf 0b 95 03 c1
       -8.070646 -9.859554 -1.0827596 -8.223887
000020 fb e9 f6 c0 cf 61 fd c0 d6 1e db bf 54 6c b6 bf
       -7.716062 -7.9181895 -1.7118785 -1.4251809
000030 17 e0 1c c1 14 f2 4e bf 8e ee b0 bf 3d be 4a c0
       -9.804709 -0.8083813 -1.3822801 -3.1678612
000040 99 3d 98 41 82 af 0e c0 c2 d3 60 bf 89 74 b5 bf
       19.030077 -2.2294621 -0.87823117 -1.4176189
000050 e6 f0 7c bf 4c f3 53 c0 93 ef 1f 41 77 9e 24 c1
       -0.9880508 -3.3117247 9.99599 -10.288688
000060 bd f5 2b c0 f5 79 d8 bf 89 d4 18 c1 c1 88 8d bf
       -2.6868737 -1.6912218 -9.551888 -1.1057359
000070 5b 16 81 41 ba 13 b6 be dd 58 91 bf 13 69 dc 40
       16.135916 -0.35561925 -1.1355244 6.8878264
000080 9b 6c a9 3e 0a e4 fe c0 a8 4e 66 bf 8e c9 8f c0
       0.33090672 -7.965337 -0.8996377 -4.493354
000090 40 1c b3 bf ed 9b 5b bf b0 ce db 40 3c f2 28 c1
       -1.3992996 -0.857848 6.8689804 -10.559139
0000a0 70 2e 3f c0 91 cc 2a c1 bb cf f6 bf df cc 6a bf
       -2.9872093 -10.674943 -1.9282144 -0.9171886
0000b0 2e a4 7b c1 2d 53 70 c0 ab c8 fe bf 1f 3c 98 41
       -15.727583 -3.7550766 -1.9904989 19.029356
0000c0 cb 13 85 c0 63 5a 6b bf 9a 1f 71 c0 36 94 22 c1
       -4.158666 -0.91934794 -3.7675538 -10.161184
0000d0 7b b8 95 bf b8 85 08 c0 f1 77 f2 bf 83 55 1a c1
       -1.1696924 -2.1331615 -1.8942853 -9.645877
0000e0 01 e9 31 c1 1c cb 9e bf 72 d4 18 41 4b 17 4f bf
       -11.119386 -1.2405734 9.551867 -0.8089492
0000f0 8d 93 68 bf 53 31 df bf 28 1a 32 c0 4a 63 21 c0
       -0.90850145 -1.7436928 -2.7828465 -2.5216851

backbone.layer2.1.running_mean f4 [64]
000000 ad 2a 7c c4 c4 fd 9c 44 c1 24 b8 42 51 ff 3b c6
       -1008.6668 1255.9302 92.071785 -12031.829
000010 dc c7 76 c6 44 ae 9d 44 c3 38 2a c4 15 71 38 c6
       -15793.965 1261.4458 -680.8869 -11804.2705
000020 64 05 99 c5 e8 80 d8 c4 bf 5f 00 c6 76 24 58 42
       -4896.674 -1732.0283 -8215.937 54.035606
000030 04 92 8b c5 20 b4 92 44 86 91 80 42 fa 22 5a 43
       -4466.252 1173.6289 64.284225 218.13663
000040 3a 31 28 c6 a9 f0 1e 44 14 dc 0e c4 c8 24 13 41
       -10764.307 635.7603 -571.4387 9.19648
000050 f8 74 75 c4 17 68 1d 45 d9 66 f9 c5 67 ca be c5
       -981.82764 2518.5056 -7980.856 -6105.3003
000060 2e 3b 3b c3 df 01 86 c5 78 30 8a c5 24 1b 82 c4
       -187.23117 -4288.234 -4422.0586 -1040.8481
000070 b8 83 bf 44 47 a7 95 c2 92 34 0d c4 85 22 c6 43
       1532.1162 -74.82671 -564.8214 396.26968
000080 dd 3b a5 45 94 e2 36 c5 47 d3 c6 c3 c9 8a 88 c4
       5287.483 -2926.1611 -397.6506 -1092.337
000090 44 4b ed c2 0c 32 10 c4 47 4f 71 c6 93 3d 40 c5
       -118.647 -576.782 -15443.819 -3075.8484
0000a0 01 bd bb c4 df 79 a6 c6 ee c1 a1 c3 7e 46 06 c4
       -1501.9064 -21308.936 -323.51508 -537.10144
0000b0 a4 76 06 45 fd 96 6c 45 40 8c 28 c4 ef d3 87 c6
       2151.415 3785.4368 -674.1914 -17385.967
0000c0 49 96 bf 43 14 b9 e2 c5 da e8 56 46 db 68 5d c6
       383.1741 -7255.135 13754.213 -14170.214
0000d0 ec 2e f3 c3 a5 bc 46 44 3a 55 8d 45 18 b3 02 42
       -486.36658 794.9476 4522.6533 32.674896
0000e0 6d a7 3d 44 d6 b6 10 43 5d 3d 19 45 31 e8 2e 44
       758.616 144.7142 2451.8352 699.628
0000f0 06 82 dc c3 77 1a 17 44 ba 57 88 44 8a 22 74 c5
       -441.0158 604.4135 1090.7415 -3906.1587

backbone.layer2.1.running_var f4 [64]
000000 de 42 13 4a 2e 99 02 48 a5 44 9d 46 d8 60 18 4b
       2.4127275e+06 133732.72 20130.322 9.986264e+06
000010 30 c6 65 4b 7e c0 7d 4a d6 32 47 47 76 bb 89 4b
       1.505848e+07 4.1574715e+06 50994.836 1.8052844e+07
000020 2b d6 eb 4a b3 e7 e9 4a d7 71 95 4a 37 be 25 47
       7.7278935e+06 7.6646015e+06 4.8970035e+06 42430.215
000030 41 49 8b 4a 44 15 c3 47 4b e4 88 47 e4 c5 d3 47
       4.5641285e+06 99882.53 70088.586 108427.78
000040 8f 41 8a 4b 64 0e f9 47 43 ed 3d 47 ab 42 97 46
       1.8121502e+07 127516.78 48621.26 19361.334
000050 a4 a9 a6 47 48 2f ff 48 25 fd 9c 4a 59 1b bb 4a
       85331.28 522618.25 5.1442105e+06 6.1311165e+06
000060 57 9e 78 47 59 df bd 49 21 54 ba 4a 66 ce 92 47
       63646.34 1.5554351e+06 6.1056165e+06 75164.8
000070 63 12 d7 4a c4 48 bf 47 84 6d 20 47 ac 95 be 4a
       7.0474735e+06 97937.53 41069.516 6.245078e+06
000080 c8 23 12 4b 47 a5 ef 4a c6 ae 06 47 b1 ad 37 48
       9.577416e+06 7.8527075e+06 34478.773 188086.77
000090 1a b7 ca 47 4b 8f c8 46 ef ba cb 4b e5 9c d0 4a
       103790.2 25671.646 2.6703326e+07 6.8358265e+06
0000a0 19 a0 75 48 42 a4 c3 4b e5 ed c1 47 21 8a ae 46
       251520.39 2.564314e+07 99291.79 22341.064
0000b0 47 fe a5 4a 52 47 93 49 13 a4 17 47 a7 24 ea 4b
       5.4392675e+06 1.2065062e+06 38820.074 3.0689614e+07
0000c0 51 89 b1 48 ec 54 b6 4a cf 15 6c 4b 86 43 43 4b
       363594.53 5.974646e+06 1.5472079e+07 1.2796806e+07
0000d0 f8 be 11 47 a1 97 3c 48 1f c1 cc 4a cb 75 d9 49
       37310.97 193118.52 6.7093915e+06 1.7814334e+06
0000e0 7c bb 8b 4a 81 44 3c 46 40 09 db 4a 8b 71 8e 47
       4.57875e+06 12049.126 7.177376e+06 72931.086
0000f0 17 52 8b 46 1a 9c 31 47 9e 72 c4 47 85 af c7 4a
       17833.045 45468.1 100581.234 6.5432985e+06

backbone.layer3.0.weight f4 [64, 64, 3, 3]
000000 10 71 07 bf ee de d7 3e 34 95 37 bf 7e 42 25 bf
       -0.52906895 0.4216227 -0.7171204 -0.64554584
000010 a6 14 93 bf 88 1b ca be b9 f7 fa be 2e 66 5e bf
       -1.1490676 -0.3947413 -0.49017122 -0.86874664
000020 f5 8c 03 c0 49 49 d1 bd d9 6c 40 bf 07 17 d1 3e
       -2.0554783 -0.10219056 -0.7516609 0.4083788
000030 e4 7a 14 3e 8b 10 af bd 18 c0 6b be 5d 1d 20 3e
       0.14500004 -0.08548077 -0.23022497 0.15636201
000040 c4 c9 1f bf 94 72 90 be 8d 22 0e 3e 73 be c0 3e
       -0.62417245 -0.28212416 0.13880368 0.376453
000050 95 aa ea 3d 61 d2 25 3f 13 14 69 be d4 fc e4 bd
       0.11458317 0.6477414 -0.22761564 -0.11181036
000060 ac da 46 3f 06 d0 77 3d 1e 91 6f 3e 2d 83 e4 be
       0.77677417 0.06050112 0.23395202 -0.4463133
000070 64 60 35 be af c0 c9 be ef 08 8c bf 04 a4 82 bf
       -0.17712551 -0.39404818 -1.0940226 -1.0206304
000080 39 63 29 bf 91 3c ac be 78 1f 84 bf f5 d2 93 bf
       -0.66167027 -0.33639959 -1.0322104 -1.1548754
000090 44 70 f9 be e2 d2 29 bf a5 5f 67 bf 28 4e ec bf
       -0.48718464 -0.66337407 -0.90380317 -1.8461351
0000a0 cf 22 de bf 1b 56 ce bf 5f 97 4b bf 5e df 69 bf
       -1.7354373 -1.6120027 -0.7952785 -0.91356456
0000b0 ec 07 ca bf b4 38 e1 3b 7b 93 aa be 4a 86 4e 3f
       -1.5783668 0.0068732146 -0.33315644 0.8067366
0000c0 4d 5c a4 bf 85 d7 03 be 12 f5 53 3f a9 c8 19 be
       -1.2840668 -0.12875183 0.8279582 -0.15017952
0000d0 8f c2 8f 3e 42 b5 64 3f fd c6 54 be a6 2b 8c 3b
       0.28078124 0.8933908 -0.20779033 0.0042776642
0000e0 ae c6 26 bf dc e2 75 be b8 69 40 bf 6f 89 a0 be
       -0.6514691 -0.24012321 -0.75161314 -0.31354854
0000f0 bf 08 1d be ae 82 96 bf 58 cf 24 bf 30 1c b8 bf
       -0.15335368 -1.175863 -0.6437888 -1.4383602
000100 a2 d8 18 bf da 86 e5 bf 6d 2c a6 bf f1 68 9d bf
       -0.59705555 -1.7931778 -1.2982308 -1.229765
000110 96 cb d6 bf a9 c3 a8 bf 4e 38 d0 bf 27 3b e1 bf
       -1.678088 -1.3184711 -1.6267183 -1.7596177
000120 7f f3 07 3f a0 0f c0 3b d0 16 83 bf de 24 3a 3f
       0.5310592 0.0058612376 -1.0241337 0.72712505
000130 82 2d 2a bf c9 cf a5 be ce 71 59 be 45 8c c5 bf
       -0.6647569 -0.3238509 -0.2123482 -1.5433432
000140 45 51 55 be bb 34 f2 be d6 3e f1 be 16 e7 7b bf
       -0.20831783 -0.47305855 -0.47118253 -0.98399484
000150 87 74 29 bf cd 08 8b bf 80 26 80 bf 5a 8e 89 bf
       -0.6619343 -1.0862061 -1.0011749 -1.0746567
000160 08 ff da bf 58 a2 ea bf c4 10 1e bf 4f ef 34 bf
       -1.7109079 -1.8330793 -0.6174433 -0.70677656
000170 69 aa 7c be 82 2a ca bd 94 83 2a bf 38 c9 ac 3e
       -0.24674381 -0.09871389 -0.6660702 0.33747268
000180 07 f3 3a 3d eb 8a b9 3d ac 91 40 3e 08 53 1e 3e
       0.045641925 0.090596996 0.1880557 0.15461361
000190 c9 06 db 3e e3 bc 2b 3e ee 30 01 bf 4a fe 65 3d
       0.42778614 0.16771273 -0.50465286 0.056150712
0001a0 fe 11 02 3e b2 fd 04 3f 7d 30 0e 3b 2e f3 8f bd
       0.12702176 0.5194961 0.0021696382 -0.07028805
0001b0 49 b7 b5 bf fe 5c 3b bf 92 aa c2 3f d0 e0 b4 bf
       -1.4196559 -0.7318877 1.5208304 -1.4131107
0001c0 ad ad 9f bf 80 fa fc 3e 8d 80 be bf f8 25 ff bf
       -1.2474877 0.49409866 -1.488298 -1.9933462
0001d0 9f 1d 32 bf 45 a2 8e 3e 23 ed 9c be 5e c4 15 bf
       -0.6957645 0.27858177 -0.3064967 -0.5850276
0001e0 fa 5e d2 3e 0c bf 39 3e d7 63 3b 3e 1e a1 5d 3e
       0.41088086 0.18139285 0.18299805 0.21643493
0001f0 4a fd 2d 3f 31 18 53 be 6f 6d 61 bd 46 bc cb 3e
       0.67964613 -0.20614697 -0.055036005 0.3979208
000200 48 da 03 3f 92 1c a3 bc 24 a1 43 3e ad d5 12 3f
       0.51504946 -0.019911084 0.19104439 0.57357293
000210 67 93 a9 bd 1d 2e 91 be f5 4b c9 3c 2d 68 0b 3f
       -0.08280068 -0.28355494 0.024572352 0.54455835
000220 00 a7 53 bf 03 9c 56 bc cb 7b 6d 3e 20 1d c3 be
       -0.82676697 -0.0130987195 0.23191755 -0.38108158
000230 71 6c 93 be 44 8e de 3e 8b e6 86 be 6f 1b 64 bf
       -0.28793672 0.43467915 -0.26347765 -0.8910436
000240 2a bf f5 3f c0 ce 94 3f ce 5b 93 3f 39 61 9f 3f
       1.9198964 1.1625595 1.1512392 1.2451545
000250 a1 fc a0 3f 0e ab b3 3f 92 d7 d9 3f 49 ad a6 3f
       1.2577096 1.4036577 1.7018912 1.3021632
000260 85 c9 c9 3f 44 f8 e0 3e 5b 1c 99 bd 1c 51 93 bd
       1.5764624 0.43939412 -0.074761115 -0.07193205
000270 7c cd 15 3f fc 56 b8 be fa 68 07 bf fc c0 9a 3f
       0.5851667 -0.36003864 -0.52894557 1.2090144
000280 e2 82 1d bf 65 20 04 bf 29 29 21 3f a4 f7 2a 3e
       -0.61527836 -0.5161193 0.6295343 0.1669603
000290 c4 0c 32 bf 7f 39 2b 3f e3 26 42 bf 68 04 72 bf
       -0.6955073 0.6688461 -0.75840586 -0.94537973
0002a0 4c fb e9 3d a4 05 22 bf fa 5d 1e bf 7d b9 85 be
       0.11424884 -0.63289857 -0.61862147 -0.2611808
0002b0 64 cd 66 bd 39 7b 10 3e 94 2c ed be 21 3c e3 3d
       -0.05634822 0.14109506 -0.46323073 0.11095453
0002c0 65 3c 80 3e 08 fa ae be 74 28 00 bf 8b 08 f1 be
       0.25046077 -0.34175134 -0.50061727 -0.4707683
0002d0 0e a8 2a 3e 19 60 37 3f 8a 04 4b 3f a4 8e 04 3f
       0.1666567 0.7163101 0.793038 0.5178015
0002e0 f0 ce c9 3e f9 bf 0f 3f a8 91 ba be 6b 5c d6 bd
       0.39415693 0.561523 -0.36439252 -0.10466846
0002f0 fe 42 cc bc 7c 2c 70 3e 83 39 6d 3e 84 25 02 3d
       -0.024934288 0.2345447 0.2316647 0.03177406
000300 57 a2 02 3e 79 01 00 bf ab c0 52 bf 43 de 8f be
       0.1275724 -0.5000225 -0.8232524 -0.2809926
000310 12 8d aa 3d 62 8f d4 be 73 13 4d bf ea 87 84 bf
       0.08327688 -0.41515642 -0.801078 -1.0353978
000320 ec fe 54 bf e5 22 a7 bf 1d 9a be bf 6a 4f b7 bf
       -0.8320148 -1.3057524 -1.4890782 -1.432111
000330 b0 a5 04 bf 8c 86 3d bf d8 37 9f bf 5f 51 a1 be
       -0.5181532 -0.7403343 -1.2438917 -0.31507394
000340 15 58 1e 3e 21 bf 14 be 20 27 fb be 18 7a 4a bf
       0.15463288 -0.14526035 -0.49053288 -0.7909255
000350 ab 81 1e bf 61 04 9e bf 80 46 0f c0 9f 30 79 bf
       -0.6191661 -1.2345086 -2.238678 -0.97339815
000360 6e 56 05 3f 15 4b 1f bf dc b3 7e bf a3 c2 e6 3d
       0.52085006 -0.6222394 -0.99493194 0.11267593
000370 42 dc bf 3e 35 8e 16 bf 8c e6 c0 3d 19 9c bd 3e
       0.3747273 -0.5881074 0.09418973 0.37033156
000380 9b b3 e5 bd 24 3a d9 be d7 66 67 3f 78 5d a6 be
       -0.11215898 -0.4242717 0.90391296 -0.32493186
000390 26 c6 08 3d 70 39 93 be 70 1e 45 bf 93 2c 7d be
       0.033392094 -0.2875476 -0.7699957 -0.24724035
0003a0 57 ad 14 be 86 79 9e be 38 76 cf be 54 cd ac 3e
       -0.14519249 -0.3095209 -0.4051988 0.33750403
0003b0 2d 75 43 bf 5e 87 17 3f c0 95 74 3e 61 6a d3 bc
       -0.7635067 0.5919093 0.2388525 -0.025807561
0003c0 f2 88 88 3e 8d cb c8 3d 41 01 eb bd c5 2f bc 3e
       0.2666698 0.09804449 -0.114748485 0.36755195
0003d0 fc 0d cf 3e 07 d8 f4 3e a5 ec 64 3e b2 2e 7a bd
       0.40440357 0.47821066 0.22355898 -0.06107969
0003e0 6e 12 c0 3d d6 0a 0b 3d 59 70 54 3b 1a 62 16 bc
       0.09378515 0.03394588 0.0032415597 -0.009178663
0003f0 20 13 0f 3e 73 b8 b9 3c 55 bb d4 3f 25 ea 21 3e
       0.1397214 0.02267096 1.6619669 0.15811975

backbone.layer3.0.bias f4 [64]
000000 08 28 2d 3c d3 c6 5e be d7 53 05 3e 90 46 a0 3c
       0.010568626 -0.21755533 0.13020264 0.019564897
000010 ed c6 2c 3d 68 a5 e5 3b 68 3d 9c bd 60 96 94 bb
       0.042181898 0.0070082434 -0.076289 -0.0045345277
000020 0b 27 77 bd 27 bc ab 3d 28 6f 44 3d db 38 c3 bd
       -0.06033997 0.083854966 0.04795757 -0.09532329
000030 ec ff 48 be 15 50 f7 bb 11 3b 12 3e 37 51 df bd
       -0.19628876 -0.0075473883 0.14280345 -0.109041624
000040 e9 5e 4d bd 66 08 b4 3d 52 60 aa 3c bc 95 9f bc
       -0.05013934 0.087906644 0.020797882 -0.019480579
000050 a4 f7 7e be 22 60 9b bd 8b 36 5e 3c b7 ee 1a be
       -0.24899155 -0.07586695 0.013562809 -0.15130125
000060 bd c3 92 be a3 6e eb 3d 6f d6 25 3e 80 20 cb bc
       -0.2866496 0.11495712 0.16195081 -0.02479577
000070 ae 76 3d 3d 3f 62 25 be db 97 c3 3d 26 9f 83 bc
       0.04625576 -0.16150759 0.095504485 -0.016067099
000080 c9 27 69 bc f2 26 04 3d 54 4c ae 3b 9d 6b 9a 3d
       -0.014230677 0.032263704 0.0053191576 0.07540057
000090 3f df cf bd 90 45 49 3d a8 af e5 bd 97 98 99 3d
       -0.10150003 0.049138606 -0.112151444 0.07499807
0000a0 c8 d6 25 be 1c 59 e6 bc 13 d9 45 3e 28 cf 47 bd
       -0.16195214 -0.028118663 0.19321088 -0.048781544
0000b0 55 c1 23 3d e3 00 03 3c 50 77 e9 bd df 37 d0 bc
       0.039979298 0.007995817 -0.1139971 -0.025417266
0000c0 f9 91 1e 3d 83 5e 99 3d b3 23 e8 bc b4 11 4b be
       0.03871343 0.0748873 -0.028337335 -0.19830972
0000d0 60 17 9f be c6 57 ed 3c e1 24 b1 bc 6e d5 dd 3d
       -0.3107252 0.028972518 -0.02162403 0.10831724
0000e0 de 2b 1d be 9b f5 82 bd 25 59 ca bd f0 87 30 bd
       -0.15348765 -0.06394502 -0.09880284 -0.04309839
0000f0 fa 36 10 3d a1 6d c0 bb d3 ae ea bc b9 b8 29 be
       0.03520868 -0.005872444 -0.028647816 -0.16574372

backbone.layer3.1.weight f4 [64]
000000 b1 77 88 be 3f 34 9a 3c a8 31 81 41 df ad 18 3f
       -0.26653817 0.018823741 16.149246 0.59640306
000010 4d 3a dd 40 a2 25 5d 3e 8e 03 97 3d 8a c0 86 be
       6.913367 0.21596387 0.07373725 -0.2631877
000020 d8 e7 8d be cf ad 6e bd 4e 44 62 3f 22 31 a1 3d
       -0.27715945 -0.058271226 0.88385475 0.078706995
000030 15 3f 01 41 ba 84 9f bd 0a b0 8c 3e 93 21 9b 3d
       8.077901 -0.077889875 0.27478057 0.07574763
000040 c8 80 23 3d 70 98 40 3f e3 63 01 3f 68 00 36 41
       0.039917737 0.752326 0.5054304 11.375099
000050 4e bd 2d 41 6d 2e 6a 41 3c be 00 be 3f 25 11 3e
       10.858717 14.636334 -0.12572569 0.14174365
000060 fb 20 c2 bc 0c d4 56 3e b3 f3 7f 41 61 f7 7c bd
       -0.023697367 0.20979327 15.996997 -0.061759356
000070 e8 bc 10 41 ff b2 6d 41 5d 99 8a 3e 10 e9 80 41
       9.04612 14.8562 0.27070132 16.1138
000080 7a 72 60 41 cf 54 9d 3e b3 2d 86 41 4f a4 8e 41
       14.027948 0.30728766 16.772314 17.830229
000090 1b d4 4f 3e af ae a0 3e 18 dc b7 3c 21 cf f1 bc
       0.20295756 0.31383273 0.022443816 -0.029517712
0000a0 86 b7 8c 3e 1e 76 66 41 f5 9e 0e bf fa 86 9a be
       0.27483767 14.403837 -0.557113 -0.30181104
0000b0 43 9e 82 40 c6 6b c9 be 32 7d a5 3d b8 61 80 be
       4.081819 -0.39340037 0.0808052 -0.25074553
0000c0 1e 15 b0 3a 86 bf 74 bd 14 15 77 be 47 d7 60 bd
       0.0013434028 -0.059752963 -0.24129134 -0.054892804
0000d0 37 e6 37 41 4f 72 bb 40 b1 0d 90 3f 78 1f ab be
       11.493705 5.8577037 1.1254178 -0.33422446
0000e0 b0 9e 91 3e 35 6a 11 41 79 3e c4 3e 1e eb 38 41
       0.2844138 9.088429 0.38328913 11.557402
0000f0 47 ce 17 3e 93 f0 01 be ce 7c d8 3d 0a 3e 02 3f
       0.14824782 -0.12689428 0.105706796 0.50875914

backbone.layer3.1.bias f4 [64]
000000 ef cd 28 c0 4e fb 9f bf 93 38 ec c0 ea 48 b5 bf
       -2.6375692 -1.2498567 -7.381906 -1.4162877
000010 27 07 09 41 23 8b 0b c0 77 36 6f bf 69 15 4a c0
       8.564246 -2.1803672 -0.9344248 -3.1575568
000020 29 69 56 c0 fc b4 57 bf 67 46 6c c0 81 51 80 bf
       -3.3501685 -0.84260535 -3.691797 -1.0024873
000030 7c af 8c 40 4e 8d 58 c0 68 b3 61 c0 56 f7 84 bf
       4.3964214 -3.3836246 -3.526575 -1.0387981
000040 25 17 a0 bf 97 74 47 c0 f5 df d2 bf 02 57 20 c0
       -1.2507063 -3.116491 -1.6474596 -2.5053105
000050 0d 23 cd c0 15 e5 2b c1 10 f9 2a c0 6b a3 7b bf
       -6.4105287 -10.743428 -2.6714516 -0.9829623
000060 e5 56 90 bf 02 04 8e bf 0d fd 5d c1 33 7d a0 bf
       -1.1276518 -1.1094973 -13.87428 -1.2538208
000070 2d 61 b3 40 fd d5 9c c1 7f a2 e2 bf f8 eb af c0
       5.6056123 -19.604486 -1.770584 -5.497555
000080 bb 72 1a c1 87 1c c5 bf 06 8f 6d c1 d4 d4 b6 c0
       -9.65301 -1.5399331 -14.847418 -5.71348
000090 4d a7 32 c0 5b fd a9 bf af 73 19 c0 83 22 3a bf
       -2.7914612 -1.3280443 -2.3976858 -0.7270891
0000a0 99 e0 2b c0 a8 4c e4 c0 96 bf a2 c0 75 a4 05 c0
       -2.6855834 -7.1343575 -5.085887 -2.0881627
0000b0 72 bf 5e 41 65 05 53 c0 96 10 b1 bf ca 59 d8 bf
       13.92174 -3.2972043 -1.3833187 -1.6902401
0000c0 b0 3c 3e c0 d0 cf 0a c0 5e 99 42 c0 6f a0 bc bf
       -2.972454 -2.1689339 -3.0406108 -1.473646
0000d0 8d 71 11 c0 78 88 1a 41 cf 23 5b c0 63 48 82 c0
       -2.2725556 9.658318 -3.4240606 -4.0713363
0000e0 e8 f9 f6 bf 07 42 cc 40 27 e8 7a c0 3f 65 ae c0
       -1.9295015 6.38306 -3.9204195 -5.449859
0000f0 69 23 19 c0 72 32 35 c0 bc 65 d4 bf 69 c3 c1 bf
       -2.3927863 -2.831204 -1.6593547 -1.513776

backbone.layer3.1.running_mean f4 [64]
000000 c6 de d2 41 d7 ab 88 c2 2d e3 76 44 73 ff 7a c3
       26.358776 -68.335625 987.5496 -250.99785
000010 8c f1 37 44 f0 28 d2 42 29 9b c3 c2 de 98 ac c4
       735.7742 105.079956 -97.80305 -1380.7771
000020 e4 01 08 44 12 30 26 42 59 32 3b c4 e1 70 c0 42
       544.02954 41.546944 -748.7867 96.22047
000030 40 91 99 45 a1 6f 3a 44 c1 b4 2e 43 18 5e ad 43
       4914.1562 745.7442 174.70607 346.7351
000040 b0 20 7d 42 ea ad 00 c4 43 7c a0 c3 22 e0 63 c5
       63.28192 -514.7174 -320.9708 -3646.0083
000050 d3 c9 8b 45 a7 de 47 c5 fa 4f e3 c3 73 31 81 41
       4473.228 -3197.9158 -454.62482 16.149145
000060 a6 9c 9f c2 2d be d1 41 ca f9 e3 c5 ac bd 9d c3
       -79.805954 26.21786 -7295.2236 -315.4818
000070 16 2c 83 c4 73 3a e7 c5 98 a1 a4 c4 73 c3 e2 c5
       -1049.3777 -7399.306 -1317.0498 -7256.431
000080 39 0d d8 44 50 04 61 c1 f0 3e 13 c5 5e 4b 82 c4
       1728.4132 -14.063553 -2355.9336 -1042.3552
000090 32 4f 96 c4 dc 43 1b c3 a3 e5 12 44 2c a9 12 42
       -1202.4749 -155.26508 587.5881 36.665207
0000a0 02 f1 a7 c2 25 ce 4a c4 0a 55 b6 44 24 51 a1 42
       -83.97072 -811.221 1458.6575 80.65848
0000b0 92 64 5b c5 73 ce 31 c2 28 59 76 c2 07 6b 52 c3
       -3510.2856 -44.45161 -61.587067 -210.41808
0000c0 6b 82 fc c3 98 15 5a c3 ce 11 90 c3 1e cc 4e 43
       -505.0189 -218.08435 -288.1391 206.79733
0000d0 97 af 75 44 85 9a 31 44 dc 8f 72 c4 31 ea f6 43
       982.7436 710.41437 -970.2478 493.82962
0000e0 be fc 92 c3 96 28 13 c5 df cf d7 c3 70 53 9e c5
       -293.97455 -2354.5366 -431.624 -5066.4297
0000f0 6d 6d a4 c2 f0 bb 2c 44 1b 4c 9e 42 2e 2a c4 41
       -82.21372 690.9365 79.14864 24.520596

backbone.layer3.1.running_var f4 [64]
000000 71 fb a6 48 cf d7 a7 45 9b 49 bc 4a 71 ca ff 46
       341979.53 5370.976 6.1698055e+06 32741.22
000010 40 3d 78 4a b3 89 74 46 40 cf e4 45 af 8c bf 48
       4.067152e+06 15650.425 7321.9062 392293.47
000020 97 7d 15 47 f5 3d 58 45 26 8a 81 48 80 1d 91 45
       38269.59 3459.8723 265297.2 4643.6875
000030 7d 09 97 4a e8 29 3e 48 89 b5 80 46 d4 38 05 46
       4.9491825e+06 194727.62 16474.768 8526.207
000040 e1 cc 4d 45 39 72 a1 47 7d 5b 5d 48 43 71 18 4a
       3292.805 82660.445 226669.95 2.4976168e+06
000050 20 4e 19 4a ef 75 1b 4a d5 39 01 48 d6 42 ea 45
       2.511752e+06 2.5470678e+06 132327.33 7496.3545
000060 c9 d3 10 46 f9 45 ac 45 09 7c 3e 4a 52 b3 08 46
       9268.946 5512.7466 3.1208982e+06 8748.83
000070 e4 4a 68 4a 06 a8 31 4a 02 6c 34 48 15 44 61 4a
       3.805881e+06 2.9107215e+06 184752.03 3.6907572e+06
000080 6e 03 39 4a fd db 21 46 85 8a 0b 4a 00 e6 f5 4a
       3.0312595e+06 10358.997 2.2862412e+06 8.0576e+06
000090 38 54 7e 47 47 e7 4c 45 91 07 47 48 40 ba f7 45
       65108.22 3278.4548 203806.27 7927.2812
0000a0 c4 ac 05 47 90 7a 0a 4a f4 21 fe 48 8d 6a 37 46
       34220.766 2.268836e+06 520463.62 11738.638
0000b0 ac a2 9c 4a 51 6b f5 48 1a 7c bb 45 2f b9 78 48
       5.13263e+06 502618.53 5999.5127 254692.73
0000c0 71 b2 91 46 f4 e2 57 47 9f 62 15 48 22 d6 5f 48
       18649.22 55266.953 152970.48 229208.53
0000d0 f9 83 2f 4a 79 5d 7c 4a 2e b3 5d 48 e5 ec ae 47
       2.8756462e+06 4.1347502e+06 227020.72 89561.79
0000e0 4c 09 bf 46 94 8b e6 4a 3e 17 0f 47 07 52 7b 4a
       24452.648 7.554506e+06 36631.242 4.1176338e+06
0000f0 1f c0 51 46 04 0d 42 48 bb 55 8e 45 ee 3f 64 47
       13424.03 198708.06 4554.7163 58431.93
